models/dnn_entity_linker.pt (torch, 14541 bytes, 5 tensors)

net.0.weight f4 [64, 10]
000000 5d 13 0e be 62 f8 be be c6 0d cc bd 44 cc 32 3d
       -0.13874574 -0.37298876 -0.099635646 0.043651834
000010 dc 67 c0 3e da 1f 44 be 12 86 6f bd 96 c6 96 3c
       0.37579238 -0.19152775 -0.05847747 0.01840524
000020 ef c0 e8 3d f8 d4 d6 bc 59 36 fe bd 70 e0 b0 3d
       0.11364924 -0.026224598 -0.1241271 0.08636558
000030 39 3a 23 3e 7e bd bb 3e 03 22 3f 3e 6f 5c f5 be
       0.15940179 0.3666801 0.18665318 -0.47922084
000040 e2 80 28 bc 94 0e b2 be f2 35 52 3e be 0d 9a 3e
       -0.010284634 -0.34776747 0.20528391 0.3008861
000050 4b 60 cd 3e 91 aa 64 3e 89 3c e6 3e 3e 56 14 bf
       0.40112528 0.22330691 0.4496806 -0.57944095
000060 c0 9d 68 be 8b d2 a0 bd ba bb 1b 3e a6 03 b8 3b
       -0.22716427 -0.07852658 0.15208331 0.0056156693
000070 b6 60 9d be c3 f9 90 bd 2a 8f ba be 40 b3 af 3d
       -0.30737847 -0.07078888 -0.3643735 0.08579111
000080 de 41 cd ba 17 75 0e 3e 8a 71 50 3d 1c 97 fb ba
       -0.0015659889 0.13911854 0.05088953 -0.0019194814
000090 2a 36 48 bd 7c 9c dc 3d 79 e2 e9 3d 51 22 46 be
       -0.04887978 0.107720345 0.11420149 -0.19349028
0000a0 09 74 7e 3e 13 c9 40 3e 3a 80 5a 3e 67 b4 dd bc
       0.24848951 0.18826704 0.21337977 -0.027063562
0000b0 5f 54 8a be 54 17 44 3e fc b7 6e be 24 5b 41 be
       -0.27017495 0.19149524 -0.23312372 -0.18882424
0000c0 52 0e 39 3d 00 13 9b be 12 58 c9 be 9c 4a b5 be
       0.045179673 -0.30287933 -0.39325005 -0.35408485
0000d0 a5 16 d2 bd 6d 06 f0 3c 3f 67 b8 3e 2b d8 10 3e
       -0.10258225 0.029299939 0.3601627 0.14144962
0000e0 da 6b a5 bd 91 4f 59 3e 88 6c 29 3e c3 b6 bd be
       -0.08077212 0.21221758 0.16545308 -0.370535
0000f0 9b 53 da be 46 18 c3 3c 88 95 45 bd d6 ee 47 3e
       -0.4264191 0.023815285 -0.048238307 0.19524702
000100 bb d6 1d 3f 1c cf 18 3f 88 ad a8 bd ea 2f 2e be
       0.6165578 0.59691024 -0.082362235 -0.17010465
000110 59 8f c2 3e bb f3 fc 3c 5b 30 d7 3e d4 ec 83 3e
       0.3799999 0.030877938 0.4202908 0.25766623
000120 3c 49 90 3e 1f 57 0a bf bc 13 0b be 39 17 0c bd
       0.28180873 -0.54039186 -0.13581747 -0.034201834
000130 4d 2b 69 3e 87 81 84 be d9 6b 23 3e 17 9b 03 3e
       0.22770424 -0.25880072 0.1595911 0.12852131
000140 0d ed 12 bf 32 d2 2c bf 51 8d 85 be 50 05 1b 3e
       -0.5739296 -0.6750823 -0.26084378 0.15138745
000150 ac b6 98 3e 4b 34 f5 bd 3e 67 a6 bc ca 0f 28 3e
       0.29826868 -0.11972865 -0.020312902 0.16412273
000160 61 96 27 3e a5 83 cd be 66 1d 8c be fe 8f a0 bd
       0.16365959 -0.401395 -0.2736618 -0.07839964
000170 67 41 4a 3e 16 cd b4 bd bd 5d 2a 3d 19 87 d3 bd
       0.19751512 -0.088281795 0.041593302 -0.10328502
000180 d6 49 8d be 82 5d a8 bd 81 56 51 3c d1 c1 9b be
       -0.27595395 -0.0822096 0.012776972 -0.30421308
000190 3f 0d 87 be 7c 71 aa be 04 29 ed 3d 72 09 3a bb
       -0.26377293 -0.33289707 0.11580089 -0.0028386978
0001a0 a4 9e 7f be 6f be e7 be 0e 71 f0 3d 25 7c 38 3b
       -0.2496286 -0.45262477 0.117403135 0.0028150168
0001b0 1b 35 90 be 68 d5 86 bd d6 23 94 3e ec 45 da 3c
       -0.28165516 -0.06583673 0.2893359 0.02664467
0001c0 6a 6e a1 be 34 45 29 3d 3d d0 e8 3c ab 8c a2 bd
       -0.31529552 0.041325763 0.028419608 -0.079369865
0001d0 66 ca 1e be 21 f5 52 be 7f c9 81 bd 9f a1 83 be
       -0.15506896 -0.20601322 -0.063372605 -0.25709245
0001e0 51 d1 0e be b1 ae 17 bf 5f a6 05 be a7 02 dc 3e
       -0.13947035 -0.5925093 -0.13051747 0.42970774
0001f0 57 49 6b 3e 91 d5 d2 be ae 9f 25 3e 03 52 0c 3e
       0.22977196 -0.41178563 0.16174194 0.1370316
000200 4b e6 d4 bd 3f 9e c9 be 7b 32 e6 bd 80 e7 f0 3d
       -0.103954874 -0.39378545 -0.11240097 0.11762905
000210 49 ac 66 be 2e ac 09 be e2 07 00 be 09 6a 26 be
       -0.22526659 -0.13444588 -0.12503007 -0.16251387
000220 0a 4f ca 3b ab 52 af 3d 69 05 89 3e b7 d0 a3 bd
       0.006173973 0.085606895 0.2676194 -0.079987936
000230 af a4 e4 bd fc 83 38 be f4 85 b0 3d 18 65 0b 3f
       -0.111642234 -0.18019098 0.086192995 0.5445113
000240 53 80 00 3f 47 0e db bd 01 16 36 be 37 a7 87 bd
       0.5019581 -0.106960826 -0.17781831 -0.066236906
000250 2f 44 2d 3d f9 ae cb 3d ce 3a 46 be c4 c8 aa be
       0.042301353 0.09945483 -0.1935837 -0.33356297
000260 53 17 4f be db 93 8a 3e 0a 1b 60 bd d8 76 27 3e
       -0.20223741 0.2706593 -0.054713286 0.16353929
000270 03 54 f8 bd f4 32 74 3e 02 34 be be 13 77 8f bd
       -0.12125399 0.23847562 -0.37149054 -0.070051335
000280 99 f2 d3 bd 46 bf 8a be 67 02 20 be 22 3f aa be
       -0.10349006 -0.27099055 -0.15625916 -0.33251292
000290 b7 db 47 be a4 8a ef bd 39 c9 e6 3d 2f 17 8b bb
       -0.19517408 -0.116963655 0.11268849 -0.004244707
0002a0 83 6f 8c be d3 5a 85 bd ea f9 61 3e 30 fb e6 be
       -0.27428827 -0.06511464 0.22067991 -0.45113516
0002b0 5c 47 ab 3b 0b 89 18 3f ff 10 db 3e 39 ac b5 3e
       0.0052270126 0.5958411 0.42786404 0.35482958
0002c0 25 53 9d 3e a8 9c 51 be 83 2d 07 3e d1 26 53 be
       0.30727497 -0.20469916 0.13200955 -0.20620276
0002d0 35 68 8b bd fb 0a 2a bf d6 ff 1a be 9d e0 34 3f
       -0.06806985 -0.66423005 -0.15136656 0.7065523
0002e0 77 61 8e bd 6c fe bf be 08 41 55 be ab 8f 7d 3d
       -0.06952184 -0.37498796 -0.20825589 0.06190459
0002f0 0d fb 4f bc 4a 22 a4 3d 62 74 02 bf bb 5e 80 be
       -0.0126941325 0.080143526 -0.50958836 -0.25072274
000300 cd 99 71 3d d9 02 02 3f 2c 8b 5d 3d ab c7 a4 bd
       0.058984566 0.50785595 0.054087803 -0.08045896
000310 b7 93 6f be 76 ea f9 3d 9e 18 32 3e 07 1c 79 be
       -0.23396192 0.12202923 0.17392203 -0.24327098
000320 b1 9f 0e 3f f8 55 e8 3e d2 ff f1 3e ce 8a 1e be
       0.5571242 0.4537809 0.47265488 -0.15482637
000330 6f 71 4e be 2f cd d5 be 22 6e 59 3e f0 88 65 be
       -0.20160459 -0.41758105 0.21233419 -0.22415519
000340 44 be 34 3e 6d 32 42 3d 2d 13 5a be 75 06 d2 be
       0.17650706 0.04741137 -0.21296377 -0.4102055
000350 26 99 68 be 6b 96 01 3f c8 ed c0 3d 06 24 28 be
       -0.22714671 0.50620145 0.09420353 -0.16419992
000360 14 81 b5 3d ff 7c cf 3d a4 18 b5 be ee cd db bd
       0.0886251 0.10131263 -0.35370362 -0.10732637
000370 7f ab c3 be e8 c5 97 be 78 65 85 bd c3 ce 9f 3e
       -0.3821678 -0.29643178 -0.06513494 0.31212434
000380 8d 61 7a bc 09 1d 86 3e 41 b5 59 bd bf 7c 72 be
       -0.015282047 0.26194027 -0.053151373 -0.236804
000390 4f 55 86 bd e5 cd b0 3e 15 e4 e4 bd 98 2e 9b bd
       -0.0655924 0.34532085 -0.11176316 -0.075772464
0003a0 9f 5a 62 be 0b f3 20 3d 2f 6a af 3d be 76 85 be
       -0.22104882 0.039294284 0.08565175 -0.26067156
0003b0 ea d4 65 bc 1c db 1d 3d a6 e2 ab be 51 b3 1d 3d
       -0.014027813 0.038539037 -0.33571357 0.038501088
0003c0 36 b3 93 bb ed b8 22 be b5 eb 4a be 68 45 ab bd
       -0.0045074476 -0.15890856 -0.19816478 -0.083628476
0003d0 01 d6 1a 3d 3f 2d 54 3d 10 cb 56 be 43 5f 8f 3e
       0.037801746 0.051800963 -0.209759 0.28002366
0003e0 05 5e 77 be c4 f9 30 be 82 dc 82 3e 09 d1 0c be
       -0.2415696 -0.17282778 0.2555886 -0.13751616
0003f0 2e 6a 74 be 66 4a af bd 90 79 d3 3b cc c1 d9 3d
       -0.2386863 -0.08559112 0.0064537004 0.10632667

net.0.bias f4 [64]
000000 03 7a 5a 3e dc 30 2a 3f 5e c7 c6 be 13 0f 95 be
       0.21335606 0.66480803 -0.3882398 -0.29113063
000010 57 5a 83 be 0a 01 84 3e 39 b0 20 3f 83 62 34 be
       -0.2565486 0.25782043 0.62768894 -0.17615704
000020 36 cc f2 3d a1 40 59 3e 39 f4 04 3d 4f cc 3a 3e
       0.118553564 0.2121606 0.03245947 0.18242
000030 5b a1 cc 3e 58 ea b5 be 81 f8 24 3f 99 17 bd 3d
       0.39966854 -0.35530353 0.64441687 0.092330165
000040 5d 4f 1c 3e 44 65 f6 3e b7 44 e4 3e 4f a5 cc bc
       0.1526465 0.48124135 0.44583675 -0.024981169
000050 50 16 b2 be 0f b4 a1 3e bd 5a ae 3e c3 f5 bb be
       -0.34782648 0.31582686 0.34053603 -0.3671094
000060 be 24 c2 3e 55 e6 9f be 56 4d 24 3e 07 d1 73 3e
       0.37918657 -0.31230417 0.16045126 0.23810206
000070 3a f2 80 3e 95 54 89 3d 4d eb 3f be 48 37 2d be
       0.25184804 0.06705586 -0.18742104 -0.1691562
000080 24 61 fd 3b 27 68 f0 bd 86 52 20 be 02 f5 7b 3e
       0.0077325273 -0.117386155 -0.1565648 0.24605182
000090 9c 72 e7 3e f0 e4 44 3d 73 a9 8e 3e 0f 42 c1 3d
       0.45204628 0.048069894 0.27863654 0.09436428
0000a0 92 82 8e 3e 87 ce cc be a9 aa 6a 3e ff 12 02 3f
       0.27833992 -0.40001318 0.22916664 0.50810236
0000b0 ea bb 95 3e 36 29 29 3e 09 72 89 3d 7b 02 94 be
       0.2924493 0.16519627 0.067112036 -0.28908142
0000c0 63 66 23 bf d9 f6 c3 be c1 c0 01 bf ec a8 59 3e
       -0.63828105 -0.38274267 -0.50684744 0.21255845
0000d0 e7 45 67 3e 69 7d 29 3e d5 5a 00 bd fe d1 bc 3e
       0.2258526 0.16551746 -0.031336624 0.3687896
0000e0 94 30 13 bf ff 3f ca 3e 0c 37 e5 3d 00 08 bf be
       -0.57496 0.3950195 0.1119214 -0.3731079
0000f0 db 94 fa 3e 67 24 b7 be 7b 47 58 3e 91 b2 12 3e
       0.48941693 -0.3576996 0.21121018 0.1432593

net.3.weight f4 [32, 64]
000000 1e 5f 62 3d a8 3d 94 3e 90 32 cf bd 9e f2 80 bd
       0.055266492 0.2895329 -0.10117066 -0.062962756
000010 80 6e 93 3d b1 83 af 3d 82 e2 e9 3e e7 8c 7e 3c
       0.071988106 0.0857004 0.45680624 0.015536523
000020 f3 8b f8 3d 41 66 9f 3d 70 93 e4 3d 88 ec f8 3c
       0.12136068 0.07783175 0.11160934 0.030386224
000030 91 b8 d1 3d fb 07 92 bd 30 1f 41 3e 0b 95 fa bd
       0.102402814 -0.071304284 0.18859553 -0.12235459
000040 63 cd be bd 8a 8f d9 3e b5 90 75 3c ef 9c 56 3e
       -0.09316518 0.42492324 0.014988114 0.20958303
000050 5a 42 7d 3d f0 bb b9 bd b1 b7 e6 3e 13 3a 98 bb
       0.061830856 -0.09069049 0.4506202 -0.004645595
000060 33 b7 04 3e b8 cf 08 3d ed 21 6a bd 3d 49 19 3e
       0.1296051 0.03340122 -0.05716126 0.14969344
000070 91 13 46 3d 10 41 a4 bc 36 a2 97 3c 81 5e 23 bd
       0.048358504 -0.020050555 0.018509965 -0.039885048
000080 c6 cf c5 bc 57 19 2f 3e 89 b3 28 bd a1 b2 5a 3c
       -0.024146926 0.1709951 -0.041186843 0.0133482525
000090 9e 98 cb 3d c8 d2 e5 3d 50 c1 b6 3c f6 a8 e6 3d
       0.09941219 0.11221844 0.022308975 0.112626955
0000a0 48 2e 19 3e 5f 77 38 bb c7 88 d4 bb bb 85 6e 3d
       0.14959061 -0.0028147323 -0.0064860317 0.058233004
0000b0 dd 64 00 3e fb d5 31 3e fc 17 4a 3e 16 26 fc bd
       0.12538476 0.17366783 0.19735712 -0.12311952
0000c0 49 03 19 bd 26 1a 04 bd a7 0f 2c be 74 56 62 bd
       -0.03735665 -0.0322515 -0.16802846 -0.05525823
0000d0 b8 92 94 3c a3 f9 2b 3e f8 21 c6 3d 8e 02 ee 3d
       0.018136367 0.16794448 0.09674448 0.11621581
0000e0 1f ae 8f bc 64 49 60 3d 68 69 af 3c 40 9d 9c 3b
       -0.017539082 0.05475749 0.021412566 0.004779488
0000f0 40 f5 c2 3c d7 c3 11 bc bc 19 c4 bd 70 cc 29 3e
       0.023798585 -0.0088967895 -0.09575221 0.16581893
000100 90 02 8e 3d f5 a0 a8 3e e7 96 91 bb d8 8b 23 bd
       0.069340825 0.329353 -0.004443038 -0.039928287
000110 32 67 d2 bd 7d 01 c7 3d f9 08 b8 3e 68 50 58 bd
       -0.10273589 0.09717081 0.35944346 -0.052811056
000120 a3 b7 07 3e b0 9d 8a bb 95 55 62 bd d8 12 b0 bd
       0.13253646 -0.0042302236 -0.0552574 -0.08597344
000130 75 0c ed bc 2d 11 51 bd e0 54 cd 3c 6c 67 77 bd
       -0.028936604 -0.05104177 0.025064886 -0.060401365
000140 d3 22 97 3d b7 7b c7 3e 0b 10 f1 3d 67 db eb 3d
       0.07379689 0.38961574 0.11770638 0.11516457
000150 1c 89 b7 3c bc 05 75 3d c9 25 72 3e 87 fd 19 bd
       0.022404246 0.05981992 0.23647226 -0.0375953
000160 72 54 f7 3c 1e ea b3 3d ce 27 a5 3d 60 98 86 3e
       0.030191634 0.08784889 0.08064233 0.26288128
000170 27 60 53 3d 30 63 5c 3d 7f 5a c8 bd 64 6e bf bc
       0.05160537 0.05380553 -0.09782886 -0.023368068
000180 5f b3 6b 3d 75 a7 eb bc 8a c7 7b 3d 7a 68 28 3e
       0.05754411 -0.028766373 0.061469592 0.16446105
000190 d9 89 34 bd 7b 82 63 3e 30 e3 df bc 3f 5e ba bd
       -0.044076774 0.22217743 -0.027330011 -0.09100007
0001a0 81 d4 a7 3e 6a 2b b5 3c c0 44 d3 3d 4a 4f 86 3d
       0.32779315 0.022115428 0.103158474 0.06558092
0001b0 f4 d8 60 3c 45 1b af 3d 43 2b 9b 3e b8 50 9e 3c
       0.013723601 0.08550123 0.30306444 0.0193256
0001c0 4a 83 12 bb e5 a9 d1 bd ad 9b 62 be 04 a8 35 3d
       -0.0022356086 -0.10237483 -0.22129698 0.044349685
0001d0 14 f0 84 bd 7f b0 0d 3e 20 6c fe bd 01 80 d7 3d
       -0.06491104 0.13836859 -0.12422967 0.10522462
0001e0 f6 78 18 3d fc fb b4 3b e8 e0 7b 3d 61 47 1e bd
       0.037224732 0.005523203 0.061493784 -0.03864229
0001f0 21 e1 b6 bc ea a4 b2 bd 08 18 05 bd f8 18 9d 3c
       -0.022324147 -0.08722861 -0.03249362 0.019176945
000200 c4 b0 46 3d d9 09 67 3e 0b 2c 77 bd 61 02 df 3d
       0.04850842 0.2256235 -0.060344737 0.108891256
000210 54 57 d1 bd db c5 14 3e 97 87 a9 3e 5f fc 63 3c
       -0.10221735 0.14528601 0.3311126 0.01391515
000220 48 64 08 3d a0 b8 a3 bc f3 d4 2a bd d0 5b f3 3c
       0.03329876 -0.019985497 -0.04170699 0.029706866
000230 eb db 44 bd 1d ae 92 3d e7 31 88 3e 0d 2c b8 bd
       -0.048061293 0.07162116 0.26600572 -0.08992777
000240 80 32 8f 3c c0 56 14 3e d9 76 3f 3e 1a f0 dc bc
       0.017480135 0.14486217 0.1869768 -0.026969958
000250 7e e3 30 3d ce 41 90 bd 26 42 05 3e db a9 71 bd
       0.043185703 -0.07043801 0.13013515 -0.058999877
000260 85 c5 1b 3e b0 1f 56 bc d1 6a 9d bd 14 d8 4c 3e
       0.15212066 -0.013069078 -0.07686389 0.20004302
000270 9d 39 21 bd 08 1c 67 bd 87 82 9f bd 62 a8 94 bc
       -0.039361585 -0.056423217 -0.07788568 -0.018146697
000280 bd 5d 97 3d a8 23 d5 3d be 18 18 3d 99 46 da 3d
       0.07390926 0.104071915 0.03713297 0.10657997
000290 09 08 e8 3d fd ec fb 3d 50 6a 85 3d 68 f7 2f 3e
       0.113296576 0.12301061 0.06514418 0.17184222
0002a0 35 0b d8 3d bb 4e cf bd 54 4b 1c 3e f6 1e 4c 3d
       0.105490126 -0.101224385 0.1526311 0.049834214
0002b0 29 67 2b 3e 86 30 b7 bc d6 00 cb 3c 58 9a ea 3d
       0.16738571 -0.022362005 0.024780672 0.1145522
0002c0 52 fc 09 be 56 10 41 be f4 a1 48 be 40 58 98 bc
       -0.13475159 -0.18853888 -0.1959303 -0.018596768
0002d0 18 40 56 bd 99 41 ae 3c 50 8c 60 bd b4 b4 61 3c
       -0.05230722 0.021271514 -0.054821312 0.013775993
0002e0 fa b6 5c bd 94 06 3d 3e c1 b1 12 bd fc 0b c1 bc
       -0.053885438 0.1845954 -0.03581405 -0.023565285
0002f0 62 b3 4c 3e 59 c1 ed bd 14 4c 3d 3d 73 af 82 bd
       0.19990304 -0.11609144 0.046215132 -0.063811205
000300 b1 d1 ab 3d 07 9a a7 3e ca 6a 32 bc 60 8c 68 bb
       0.08389605 0.327347 -0.010889718 -0.003548406
000310 70 48 fa 3d e1 e5 a8 3d 2e a8 c6 3e bd e9 13 bd
       0.122208476 0.08246971 0.38800186 -0.036111582
000320 3e 5e 05 3e 1e e3 7d 3d ab f4 9d bc 94 ed 18 bd
       0.13024232 0.061984174 -0.019281706 -0.037335947
000330 fb be dc 3d 9c ad 81 bb 62 03 1e 3e ee bf a7 3b
       0.10778614 -0.0039574634 0.15430978 0.0051193153
000340 18 f8 d6 3c 91 33 cb 3e 41 42 bd 3d 0c 30 21 3e
       0.026241347 0.3968778 0.092411526 0.15740985
000350 62 37 18 3c 94 ff d4 3d d8 a7 1b 3e eb cd ce bc
       0.009290548 0.1040031 0.15200746 -0.025244674
000360 10 d5 17 3d 70 6f b7 bd 92 3f 97 3d 36 82 1e 3e
       0.037068427 -0.08956802 0.07385172 0.15479359
000370 2f ae 3c 3e dc a7 62 bd 6a 4d 2c bd ec 3d 49 bc
       0.18425821 -0.055335864 -0.042066015 -0.01228283
000380 0b 49 cc bd d8 8d 88 3b 60 97 c2 3c d8 e4 ca 3d
       -0.09974869 0.0041672997 0.023753822 0.0990693
000390 88 4b 6c 3d cb 7d 8e 3e 28 54 d1 bd 79 9f 19 3d
       0.05768922 0.27830347 -0.1022113 0.0375056
0003a0 d3 ef 7d 3e f3 77 82 bd ff 1e 96 bd 50 50 7d 3d
       0.24798517 -0.06370535 -0.07330131 0.06184417
0003b0 e2 81 d0 3d 38 52 00 bd db 68 99 3d 72 09 99 3d
       0.10181023 -0.03132841 0.07490703 0.07472505
0003c0 d6 04 49 be a9 7d ba bd 44 44 0c be 40 be fc 3c
       -0.19630751 -0.09105999 -0.13697916 0.030852437
0003d0 ee ce 92 3d 8c bb 19 3e c0 27 51 3b 7f 46 82 3d
       0.07168375 0.1501295 0.0031914562 0.06361102
0003e0 c6 4a 34 be 50 f7 f8 3c 25 b4 13 ba f0 44 ed bc
       -0.17606649 0.030391365 -0.00056344486 -0.028963536
0003f0 bf 5a 25 3e 5f bb eb bd fd 61 9a bc ec cb 01 3d
       0.16147898 -0.115103476 -0.018845553 0.031688616

net.3.bias f4 [32]
000000 72 2b 3a 3e 94 43 58 3e bf 19 8f 3e bd c3 af 3e
       0.18180636 0.21119529 0.2794933 0.34329024
000010 c4 d7 91 3e f4 b7 cc 3e 72 e3 8f 3e 47 b2 d7 3e
       0.2848493 0.39984095 0.28103215 0.42128202
000020 58 4a c5 3e cd fe 4d 3d 9b 39 04 3f c6 52 85 3e
       0.38533282 0.050291825 0.516504 0.26039714
000030 4f 2b a0 3b 32 4d b9 3e 80 7a 52 3e f8 a8 c6 3e
       0.0048879753 0.36191708 0.20554543 0.38800788
000040 50 b1 b7 3e 53 c7 af 3e 7c 38 84 bd 04 99 b6 3e
       0.35877466 0.3433176 -0.06456086 0.35663617
000050 23 fb 23 3d 63 9c 60 bd 77 78 5e 3e 6a a2 12 be
       0.040034425 -0.054836642 0.21725641 -0.14319769
000060 d6 62 96 3e 7e 36 23 bd bf 27 cd 3e 9a 16 09 be
       0.2937228 -0.03984689 0.40069386 -0.13387528
000070 43 de a7 3e 68 f6 cf 3e 5a cd 72 be 00 1e e1 3e
       0.3278676 0.4061768 -0.23711148 0.439682

net.6.weight f4 [1, 32]
000000 0c 0c 4e be c0 c9 34 be 7d ed 85 be 45 26 44 be
       -0.20121783 -0.17655087 -0.26157752 -0.19155224
000010 2b aa d5 bd 4e 0b 06 be c0 84 35 be ef d6 52 be
       -0.104328476 -0.1309025 -0.17726421 -0.20589803
000020 c9 3d fb bd 0f bb 03 3e 12 36 37 be 73 37 2f be
       -0.12267644 0.12864326 -0.1789172 -0.17110996
000030 3f b2 65 3e 3f e8 53 be aa 8f fc bd a1 82 1e be
       0.22431277 -0.20694064 -0.12332089 -0.15479518
000040 b0 c8 0c be ef 70 13 be 38 fa 03 3d 09 2c 35 be
       -0.13748431 -0.1439855 0.03222105 -0.1769258
000050 0a 96 96 3e 3d 36 77 3e c5 54 3e be be 39 81 3e
       0.29411346 0.24141784 -0.18587025 0.25239366
000060 50 24 1e be 91 e2 f5 3c be 03 90 be 56 e2 05 3e
       -0.1544354 0.030015262 -0.28127855 0.13074622
000070 e6 f3 19 be 77 83 7b be 60 56 92 3e 89 13 2f be
       -0.15034446 -0.24561869 0.28581524 -0.17097296
