models/dnn_entity_linker.pt (torch, 45773 bytes, 5 tensors)

net.0.weight f4 [128, 17]
0.2455291 -0.054981466 -0.2731925 -0.2716055 0.17211954 -0.09273759 -0.025757624 -0.29443267
-0.1624716 0.17059706 -0.080511466 -0.1784067 0.055098064 -0.13193256 -0.33099827 -0.04094194
0.1409627 -0.23655926 -0.060148202 -0.1667001 -0.27600002 0.23314779 0.28265548 0.024516199
0.12460608 0.08626189 -0.21543893 0.123243615 0.17755435 0.11117595 0.08869596 0.18682818
0.03242573 -0.2329331 -0.16144983 -0.293728 -0.27791563 -0.08574582 -0.21183307 0.069686465
0.014103907 -0.11948805 -0.28663078 -0.054216143 0.07760006 0.063204385 -0.08098332 0.18668081
0.1449343 0.1562085 0.04572701 -0.45626685 -0.120951466 -0.025984617 0.37448272 -0.031922285
-0.28367805 0.20271008 0.22825004 0.18695766 0.20419617 -0.21604063 0.077554606 -0.064500816
0.21861127 0.105835125 -0.17104702 -0.06323533 -0.30814463 -0.19641954 -0.39471087 0.22505723
0.1448289 -0.3157909 0.06747369 0.049451817 0.11224614 -0.09531444 -0.2540422 -0.33342773
0.010163125 0.3417164 -0.033736024 0.08471829 0.02977684 -0.056878164 0.21003832 -0.0066750934
-0.1788926 -0.1618365 -0.06665027 -0.11249875 -0.26689252 0.079531625 -0.100606635 0.28122655
0.061406277 -0.10357409 -0.26390007 -0.28753424 0.09738965 0.13024211 0.16000265 0.017416118
0.15667415 -0.14777002 0.115819536 0.18727848 -0.0603721 0.0634907 -0.08069604 0.05949243
-0.13499573 -0.0319813 0.012812285 0.07201295 -0.12764171 -0.08636322 -0.21586381 -0.7153087
-0.55957586 -0.2577283 0.5387747 0.11183888 -0.08883175 0.23448782 0.14158659 -0.25450683
-0.28116935 -0.20546971 -0.20298076 0.035936672 0.57878137 0.120678686 -0.19096562 -0.0027039787
0.036542337 0.29280126 0.27197662 0.028469527 -0.3651477 -0.5224872 0.115843214 0.14426164
-0.2146545 0.23672768 0.1425474 0.147018 -0.10732201 -0.25173697 -0.2962338 -0.04900021
-0.14861606 -0.6505162 -0.31423983 -0.19635208 0.37030745 0.029799739 -0.41848388 -0.016896943
-0.045412317 -0.048803594 0.050809875 -0.04340276 -0.010806862 -0.26106635 0.15725036 0.3011656
0.13153687 0.034383748 -0.06009697 -0.11333338 -0.052314103 -0.22394621 -0.07242723 -0.08021582
0.116726354 -0.14474167 0.008212595 -0.19536199 0.17148197 0.19070762 0.15782304 0.08715977
0.14672315 -0.1566195 -0.21342348 -0.8281221 -0.6344515 -0.24428076 0.6465709 0.20277521
-0.21053961 -0.10564662 0.05281859 0.123644695 0.06188077 -0.35925296 -0.2960319 -0.21428968
0.50885534 0.26452377 0.030619867 -0.002098642 -0.08660718 -0.24188931 0.11278879 0.04706174
0.19642086 -0.0373006 0.15952145 -0.061857354 0.07491025 0.14819674 -0.25738204 -0.31044686
-0.1672333 0.1447722 0.17477752 0.0053365966 -0.17378893 -0.30657744 -0.20206866 -0.23995166
0.08468598 -0.006460813 -0.06293065 0.1745298 -0.21392842 -0.012518975 -0.030712456 0.03434461
-0.09311305 0.10085659 -0.030236242 -0.14220682 0.125305 0.042119887 -0.09934525 0.009625896
0.145799 -0.0016201407 0.07224664 0.0633387 0.0320831 -0.22321089 -0.0036844355 -0.2274049
-0.098536775 0.22770146 0.12857568 -0.18211815 -0.22175555 -0.12030104 -0.17791347 0.23881245
00000000: fb6b 7b3e 3f34 61bd e3df 8bbe e00f 8bbe
00000010: 1b40 303e 35ed bdbd a701 d3bc e1bf 96be
00000020: f55e 26be ffb0 2e3e 32e3 a4bd 3fb0 36be
00000030: 82ae 613d 5419 07be 9b78 a9be bcb2 27bd
00000040: 8758 103e 973c 72be f65d 76bd 6eb3 2abe
00000050: e04f 8dbe 4bbe 6e3e 38b8 903e 32d6 c83c
00000060: 7931 ff3d 13aa b03d 069c 5cbe 2667 fc3d
00000070: cfd0 353e 37b0 e33d 3aa6 b53d e34f 3f3e
00000080: d8d0 043d 0486 6ebe 1b53 25be 8463 96be
00000090: f54a 8ebe 819b afbd c5ea 58be c7b7 8e3d
000000a0: 1314 673c 27b6 f4bd 45c1 92be bf11 5ebd
000000b0: c8ec 9e3d 4d71 813d 95da a5bd 4129 3f3e
000000c0: a869 143e 1ff5 1f3e 3f4c 3b3d cf9b e9be
000000d0: 67b5 f7bd b1dd d4bc 33bc bf3e f1c0 02bd
000000e0: 403e 91be 3b93 4f3e 61ba 693e d471 3f3e
000000f0: cd18 513e c139 5dbe f3d4 9e3d 0119 84bd
00000100: a2db 5f3e 16c0 d83d f326 2fbe 8681 81bd
00000110: 22c5 9dbe 3422 49be 8b17 cabe 6775 663e
00000120: 074e 143e 58af a1be a52f 8a3d fd8d 4a3d
00000130: 4ee1 e53d 3834 c3bd d211 82be 0ab7 aabe
00000140: 3c83 263c 74f5 ae3e c92e 0abd c880 ad3d
00000150: 8fee f33c 14f9 68bd 4914 573e beba dabb
00000160: 9f2f 37be 78b8 25be f07f 88bd bf65 e6bd
00000170: 23a6 88be 7ae1 a23d da0a cebd edfc 8f3e
00000180: 2685 7b3d a71e d4bd e91d 87be b037 93be
00000190: 3a74 c73d 305e 053e bcd7 233e 3fac 8e3c
000001a0: 306f 203e 0651 17be cb32 ed3d eec5 3f3e
000001b0: bc48 77bd 6a07 823d f743 a5bd 56ae 733d
000001c0: 523c 0abe d3fe 02bd 9eea 513c 877b 933d
000001d0: 82b4 02be 33df b0bd 670b 5dbe 791e 37bf
000001e0: 5d40 0fbf f7f4 83be 24ed 093f c80b e53d
000001f0: 6ced b5bd 931d 703e 13fc 103e b84e 82be
00000200: 6ef5 8fbe a766 52be 30da 4fbe 5532 133d
00000210: 042b 143f 6326 f73d 7e8c 43be 3c35 31bb
00000220: 6bad 153d 0cea 953e 8540 8b3e ed38 e93c
00000230: a4f4 babe b9c1 05bf 353f ed3d 53b9 133e
00000240: 64ce 5bbe be68 723e f2f7 113e e38b 163e
00000250: a4cb dbbd abe3 80be f5ab 97be 72b4 48bd
00000260: cf2e 18be 3b88 26bf 0be4 a0be 8510 49be
00000270: f098 bd3e 951e f43c 8543 d6be 756b 8abc
00000280: 4402 3abd 47e6 47bd 041e 503d 18c7 31bd
00000290: 440f 31bc 7daa 85be 3d06 213e 6132 9a3e
000002a0: 9ab1 063e f9d5 0c3d 3e28 76bd 551b e8bd
000002b0: 5047 56bd 2852 65be ba54 94bd 3148 a4bd
000002c0: 3a0e ef3d 2937 14be 1f8e 063c f90c 48be
000002d0: f898 2f3e dc48 433e 5d9c 213e d280 b23d
000002e0: 983e 163e dd60 20be af8b 5abe cfff 53bf
000002f0: 6a6b 22bf bc24 7abe ac85 253f 4ea4 4f3e
00000300: b297 57be 415d d8bd 4e58 583d 6e39 fd3d
00000310: b176 7d3d 01f0 b7be 7e91 97be c16e 5bbe
00000320: 5844 023f a96f 873e 84d6 fa3c 5f89 09bb
00000330: 1b5f b1bd d5b1 77be cffd e63d d0c3 403d
00000340: 8d22 493e 84c8 18bd 9759 233e 235e 7dbd
00000350: 8c6a 993d e3c0 173e 94c7 83be e4f2 9ebe
00000360: 353f 2bbe 2a3f 143e e1f8 323e 9ede ae3b
00000370: baf5 31be b8f7 9cbe 16eb 4ebe e3b5 75be
00000380: d86f ad3d 3ab5 d3bb c9e1 80bd f1b7 323e
00000390: 0d10 5bbe 631c 4dbc b098 fbbc efac 0c3d
000003a0: 0eb2 bebd e68d ce3d ffb1 f7bc aa9e 11be
000003b0: f44f 003e e785 2c3d 8675 cbbd efb5 1d3c
000003c0: 554c 153e e75a d4ba 0cf6 933d b8b7 813d
000003d0: 9269 033d 6591 64be 9276 71bb d5dc 68be
000003e0: a6cd c9bd 922a 693e 58a9 033e 2e7d 3abe
000003f0: e313 63be 6460 f6bd f32e 36be 408b 743e

net.0.bias f4 [128]
-0.27067423 -0.11429896 0.12550958 -0.0045957784 -0.12943828 -0.33957976 -0.04976105 0.4315312
-0.3594374 -0.03538566 -0.22391117 0.08610242 -0.054526225 -0.13406762 -0.18455149 0.23688774
-0.26250407 -0.020896746 0.24594714 0.18743496 -0.31077078 -0.41054678 0.2920306 -0.29308233
-0.002067504 0.46653825 -0.14592184 -0.07410103 0.18620574 0.027596133 0.3355724 -0.21458758
-0.12946236 -0.1547859 0.5529409 -0.23427431 0.29963708 0.41219634 0.42705104 -0.14572102
0.011973942 0.0722183 0.055238746 0.5122658 0.24998482 -0.29239252 -0.16189013 -0.034598697
0.44530568 0.05601387 0.09608712 -0.43557826 -0.22906968 -0.02220671 -0.22192705 -0.26291052
-0.109940484 0.16494654 0.084578484 -0.14580612 0.16879037 -0.023862064 -0.1371871 -0.15354413
-0.12837052 0.18788001 0.112408325 -0.052370425 -0.14609292 -0.32268792 0.009292075 -0.057365928
-0.002815175 0.2182004 -0.29747432 0.14766654 0.21001987 -0.13888407 -0.034903985 0.26712057
0.094615154 0.2926949 0.033082265 0.2751954 0.46986765 0.004351478 -0.16267924 0.078401394
0.18547915 -0.09659295 0.19118537 0.22426374 0.12408918 -0.25214428 -0.030680636 -0.22685967
-0.003324689 0.18642661 0.11682305 0.19797184 0.37348965 -0.23092517 0.019281428 0.31735775
6.36075e-05 0.15885043 -0.12054493 0.15690228 -0.22556768 0.5122876 -0.18597864 0.055053506
0.06710508 0.024876166 0.0101235695 -0.2229075 -0.24498641 -0.4659903 -0.23980886 0.40895766
-0.08135299 0.18699336 -0.03603469 0.10165884 -0.0866178 -0.06746042 -0.022643978 -0.04846781
00000000: d095 8abe 9315 eabd 9585 003e 2f98 96bb
00000010: 788b 04be 66dd adbe 3ed2 4bbd a8f1 dc3e
00000020: 2e08 b8be 8ef0 10bd f848 65be 7756 b03d
00000030: e456 5fbd 0649 09be 11fb 3cbe b392 723e
00000040: ef66 86be a72f abbc 91d9 7b3e f3ee 3f3e
00000050: 591d 9fbe 3033 d2be 0985 953e e30e 96be
00000060: f67e 07bb 1ade ee3e 896c 15be 48c2 97bd
00000070: b8ac 3e3e 4911 e23c 25d0 ab3e d9bc 5bbe
00000080: c891 04be 3280 1ebe 898d 0d3f 9be5 6fbe
00000090: 086a 993e 660b d33e 6fa6 da3e e437 15be
000000a0: 5a2e 443c 30e7 933d 0642 623d da23 033f
000000b0: 05fc 7f3e 79b4 95be 87c6 25be 5db7 0dbd
000000c0: 1bff e33e cd6e 653d 53c9 c43d 1d04 dfbe
000000d0: 3e91 6abe d9ea b5bc d840 63be 359c 86be
000000e0: 7a28 e1bd bfe7 283e 7c37 ad3d 334e 15be
000000f0: 62d7 2c3e 607a c3bc c67a 0cbe ac3a 1dbe
00000100: 9073 03be 9e63 403e 5636 e63d 5f82 56bd
00000110: 6299 15be 5a37 a5be ca3d 183c 89f8 6abd
00000120: cd7e 38bb ed6f 5f3e 8e4e 98be e635 173e
00000130: 730f 573e a037 0ebe 7bf7 0ebd 07c4 883e
00000140: 97c5 c13d 1bdc 953e 4581 073d 69e6 8c3e
00000150: 7e92 f03e d896 8e3b 6395 26be e990 a03d
00000160: 3fee 3d3e 86d2 c5bd 19c6 433e 65a5 653e
00000170: 7822 fe3d 0e19 81be f555 fbbc e74d 68be
00000180: 07e3 59bb 9ee6 3e3e ec40 ef3d 21b9 4a3e
00000190: 093a bf3e a677 6cbe 16f4 9d3c b77c a23e
000001a0: 0465 8538 b0a9 223e 43e0 f6bd feaa 203e
000001b0: 37fb 66be 4825 033f 2f71 3ebe c97f 613d
000001c0: 636e 893d 1ac9 cb3c 54dd 253c dd41 64be
000001d0: b8dd 7abe 4896 eebe 7490 75be e662 d13e
000001e0: 659c a6bd 307b 3f3e 1c99 13bd 8332 d03d
000001f0: ac64 b1bd b028 8abd dd7f b9bc 2f86 46bd

net.3.weight f4 [64, 128]
-0.05676726 0.008272617 0.040318802 0.03447091 -0.093219966 -0.07293285 0.026329072 0.16565225
0.026370572 -0.07376931 0.0097889425 -0.058011554 0.02204816 -0.0093695 -0.0117480755 0.006179887
-0.0849199 0.039180823 0.031227378 -0.090541705 -0.077295974 0.017787067 0.17596713 -0.036833618
0.08504007 0.022234928 0.08798202 -0.00592434 -0.028530594 0.040586006 0.23077251 -0.03303682
0.021843605 0.085678585 0.2746289 -0.02218842 0.30798808 0.32668903 -0.04392948 -0.050160144
-0.08869849 0.12499245 -0.023572752 0.049425937 0.040313587 0.04086145 0.10916658 0.0051709525
0.4432341 0.20772554 0.058571458 -0.1066641 -0.07200116 -0.09198903 0.27685335 0.032419764
0.06453434 -0.011003433 -0.035907965 0.06841599 0.00841823 -0.079577625 -0.053888515 0.16989931
0.101246975 0.029148545 -0.048417382 0.026121173 -0.016926011 -0.13227306 0.036256757 0.03162708
-0.05060584 -0.06027873 -0.0064620185 0.21997018 -0.04502884 -0.100545384 -0.05015386 0.036814556
-0.0108031 -0.018374432 -0.12205631 0.2905566 0.19838274 -0.099447824 0.05518706 0.0015585797
0.032005254 -0.09395113 0.14278685 0.03208403 -0.01612687 0.056422748 -0.064056985 -0.09054984
-0.034742054 0.11424935 0.00561934 0.0020062635 0.21298103 -0.014132431 0.07856259 0.30179158
-0.014541843 0.028471991 0.03059911 -0.053274196 0.0017104213 0.2109974 -0.104775526 0.017982913
0.037071202 -0.01725363 0.08365042 0.028972017 -0.023606101 -0.14670667 0.03271099 0.022611465
-0.048566543 -0.026053457 0.11867565 0.015586135 0.0799346 0.02289445 -0.07945893 0.033891845
-0.024598302 0.11718685 -0.0145475995 -0.03865431 -0.0691226 -0.051032867 -0.061607756 0.3269553
0.03220893 -0.07985763 -0.03705653 0.046735942 -0.09016014 -0.039980296 0.06728323 -0.026366236
-0.0005779484 0.19740896 -0.008601551 0.067288466 -0.004951734 0.008525448 0.27289626 -0.068316996
0.11018686 0.0829584 -0.060586732 0.065283574 0.14789428 0.175762 0.11142453 -0.052530028
-0.028380096 0.07149847 0.44314453 0.012924046 0.18839382 0.5205401 0.14501807 -0.01947843
0.015792003 0.07969515 0.018146325 0.2271484 0.07512002 -0.10696175 0.21967626 0.04359262
0.4035388 0.20917504 -0.09423384 0.039117657 -0.058997232 0.0258599 0.08847674 -0.0331293
0.012812001 -0.024582112 0.06253882 0.045388807 0.1623859 0.05103247 -0.07426962 0.16919695
0.10424196 0.0682174 0.07444103 -0.040869407 0.021878902 0.0037937094 0.0998202 -0.06086842
0.00046062714 -0.03376557 -0.085662775 0.37242335 0.04537062 0.049884956 0.12457053 0.20033967
0.056155685 0.095723964 -0.02411155 0.20051688 0.2684259 -0.035161644 -0.043217864 0.2877063
0.29183298 -0.09221318 0.047163192 -0.017570188 0.06420066 -0.078908764 -0.025516106 -0.1767509
-0.010966154 0.07480121 -0.056360498 0.027207958 0.22914954 -0.15855911 -0.038722817 0.27363303
-0.012906819 0.09372481 0.018536251 0.064810686 -0.08893407 0.24360538 0.0025345634 -0.0663094
-0.069802985 -0.03181061 -0.0032199484 0.012612423 0.09137827 -0.11090876 -0.08296767 0.1890175
-0.052993882 -0.05273695 0.20613761 0.09847871 0.08698867 -0.053555936 -0.07870632 0.087220035
00000000: c984 68bd df89 073c 5425 253d 5e31 0d3d
00000010: 1cea bebd d15d 95bd 11b0 d73c bea0 293e
00000020: 1907 d83c 5d14 97bd cd61 203c 869d 6dbd
00000030: 589e b43c 8882 19bc 007b 40bc a680 ca3b
00000040: 7cea adbd 127c 203d 8fd0 ff3c ee6d b9bd
00000050: 5a4d 9ebd 2fb6 913c ba30 343e d9de 16bd
00000060: 7d29 ae3d 0626 b63c eb2f b43d f720 c2bb
00000070: feb8 e9bc 833d 263d a14f 6c3e 9e51 07bd
00000080: 5cf1 b23c 4178 af3d 299c 8c3e 7dc4 b5bc
00000090: 9db0 9d3e c943 a73e 66ef 33bd b974 4dbd
000000a0: 8ea7 b5bd 0bfc ff3d a51b c1bc da72 4a3d
000000b0: dc1f 253d 565e 273d ba92 df3d 1871 a93b
000000c0: 94ef e23e 01b6 543e a0e8 6f3d b572 dabd
000000d0: 5875 93bd bf64 bcbd b9bf 8d3e 96ca 043d
000000e0: 942a 843d be47 34bc 3b14 13bd af1d 8c3d
000000f0: 9eec 093c 98f9 a2bd 34ba 5cbd 16fa 2d3e
00000100: 935a cf3d eec8 ee3c 4e51 46bd 12fc d53c
00000110: 6ba8 8abc 9772 07be f781 143d 668b 013d
00000120: 1248 4fbd d4e6 76bd 57bf d3bb dd3f 613e
00000130: 2970 38bd bdea cdbd 226e 4dbd dcca 163d
00000140: 7cff 30bc fa85 96bc a9f8 f9bd d6c3 943e
00000150: d824 4b3e 4dab cbbd d40b 623d 4249 cc3a
00000160: f117 033d 7369 c0bd b736 123e 8b6a 033d
00000170: 7f1c 84bc 8a1b 673d 4f30 83bd 3272 b9bd
00000180: af4d 0ebd 90fb e93d 7122 b83b 847b 033b
00000190: b317 5a3e b68b 67bc 6ce5 a03d 6d84 9a3e
000001a0: e940 6ebc 183e e93c fcaa fa3c 0b36 5abd
000001b0: 3730 e03a b40f 583e 8d94 d6bd e750 933c
000001c0: f9d7 173d 7c57 8dbc e950 ab3d b956 ed3c
000001d0: 9561 c1bc 463a 16be f6fb 053d ae3b b93c
000001e0: b6ed 46bd 0f6e d5bc 380c f33d fd5c 7f3c
000001f0: c0b4 a33d 248d bb3c 5dbb a2bd 2dd2 0a3d
00000200: 6182 c9bc a9ff ef3d 0e59 6ebc fb53 1ebd
00000210: 2690 8dbd d707 51bd 6a58 7cbd af66 a73e
00000220: 83ed 033d 668c a3bd 97c8 17bd 306e 3f3d
00000230: e1a5 b8bd 61c2 23bd cacb 893d 01fe d7bc
00000240: 7681 17ba 9325 4a3e 85ed 0cbc 89ce 893d
00000250: 2842 a2bb 52ae 0b3c 0fb9 8b3e c8e9 8bbd
00000260: a6a9 e13d 18e6 a93d cb29 78bd 65b3 853d
00000270: 9971 173e f4fa 333e 8b32 e43d ba29 57bd
00000280: 607d e8bc ca6d 923d d7e3 e23e 61bf 533c
00000290: 4fea 403e 1e42 053f 9e7f 143e 3a91 9fbc
000002a0: 3b5e 813c 3637 a33d 9aa7 943c 9799 683e
000002b0: 86d8 993d c30e dbbd d0f2 603e 2d8e 323d
000002c0: a39c ce3e fb31 563e acfd c0bd d639 203d
000002d0: 15a7 71bd 24d8 d33c 4b33 b53d 97b2 07bd
000002e0: 6de9 513c 6d60 c9bc 5a14 803d 9de9 393d
000002f0: 7d48 263e 6c07 513d ac1a 98bd f741 2d3e
00000300: cf7c d53d 90b5 8b3d 8a74 983d ae66 27bd
00000310: 623b b33c e29f 783b 886e cc3d 2a51 79bd
00000320: 5480 f139 c44d 0abd f76f afbd 46ae be3e
00000330: 8bd6 393d 2b54 4c3d d61e ff3d d825 4d3e
00000340: 8103 663d ed0a c43d 9685 c5bc 4c54 4d3e
00000350: 1f6f 893e a805 10bd 3705 31bd 3d4e 933e
00000360: 226b 953e 44da bcbd 312e 413d 5bef 8fbc
00000370: a37b 833d eb9a a1bd 2707 d1bc 30fe 34be
00000380: 62ab 33bc 6031 993d 44da 66bd 39e3 de3c
00000390: 2da6 6a3e 525d 22be d19b 1ebd a119 8c3e
000003a0: 1f77 53bc cbf2 bf3d 56d9 973c 77bb 843d
000003b0: 1123 b6bd b073 793e eb1a 263b 39cd 87bd
000003c0: def4 8ebd d84b 02bd c505 53bb 56a4 4e3c
000003d0: 8824 bb3d 2224 e3bd f4ea a9bd ce8d 413e
000003e0: 1d10 59bd b302 58bd bd15 533e 35af c93d
000003f0: 1e27 b23d 785d 5bbd c730 a1bd 6ba0 b23d

net.3.bias f4 [64]
0.06062354 0.18676494 0.1944305 -0.07065932 0.049233697 -0.078778856 0.21112841 -0.08300418
0.044737834 0.21886493 0.14024328 0.3672847 0.028238257 -0.07465197 -0.001886002 0.0836024
0.19470069 0.2201373 -0.0257152 -0.060111213 -0.10428229 -0.085056365 0.113260955 0.059834708
0.21244852 0.011198915 0.21380149 0.17849438 0.013244663 0.22139567 -0.06609613 0.24474263
0.078879096 -0.05032197 -0.066850476 0.17864236 0.0019462965 -0.036531765 0.11882058 0.03414697
0.0068290657 0.066858515 0.14124776 0.19378006 0.33974296 -0.068632245 0.23986822 0.21043493
-0.114658035 0.15970111 0.057229433 -0.038063515 -0.0908218 0.031545464 0.10848367 0.13936763
-0.079626225 0.14268677 0.100119956 -0.042862043 0.12214469 0.07116342 0.22896175 0.14699638
00000000: 6450 783d 4f3f 3f3e ca18 473e d5b5 90bd
00000010: 46a9 493d cf56 a1bd 0c32 583e 18fe a9bd
00000020: 053f 373d 211e 603e ef9b 0f3e bd0c bc3e
00000030: eb53 e73c 22e3 98bd ba33 f7ba bc37 ab3d
00000040: 9e5f 473e ac6b 613e afa8 d2bc 2d37 76bd
00000050: f491 d5bd 0832 aebd 5cf5 e73d 3d15 753d
00000060: 1b8c 593e a77b 373c c7ee 5a3e 3bc7 363e
00000070: 2500 593c 8cb5 623e 685d 87bd d09d 7a3e
00000080: 5d8b a13d 691e 4ebd e7e8 88bd 06ee 363e
00000090: e01a ff3a 55a2 15bd 3458 f33d b1dd 0b3d
000000a0: 5bc6 df3b 1eed 883d 41a3 103e 486e 463e
000000b0: caf2 ad3e 108f 8cbd 04a0 753e 417c 573e
000000c0: d5d1 eabd b088 233e 6969 6a3d 7de8 1bbd
000000d0: c800 babd d135 013d b02c de3d 63b6 0e3e
000000e0: 1313 a3bd 7b1c 123e b10b cd3d 1c90 2fbd
000000f0: ff26 fa3d 21be 913d f374 6a3e 3886 163e

net.6.weight f4 [1, 64]
-0.09388636 -0.07650476 -0.12810686 0.010777553 0.11869304 0.076687716 -0.058867145 0.06256267
0.007238628 -0.050745655 -0.04798707 -0.04756272 0.061144613 0.055741034 0.06818294 -0.022187438
-0.07214108 -0.047099974 0.060004786 0.11671363 0.07607675 0.07636419 -0.059648708 -0.13082498
-0.045000847 0.1090894 -0.049533438 -0.046383042 -0.02665836 -0.04054567 0.05956684 -0.081551306
-0.101282746 0.027879583 0.08670349 -0.035460662 0.008647165 0.058357112 -0.03710106 0.090365425
0.0176316 -0.13896413 -0.032400288 -0.08859946 -0.037868284 0.008355262 -0.051125918 -0.029556956
0.04281236 -0.06949206 0.043497555 0.0116967065 0.028040096 0.010993634 0.043220557 -0.059322607
0.004264252 -0.085003205 -0.060426675 0.09238433 -0.06755732 0.03710241 -0.09946488 -0.058744352
00000000: 7e47 c0bd 87ae 9cbd 722e 03be 5594 303c
00000010: 5615 f33d 730e 9d3d ad1e 71bd db20 803d
00000020: 0332 ed3b adda 4fbd 178e 44bd 20d1 42bd
00000030: c672 7a3d b650 643d 7fa3 8b3d 6ec2 b5bc
00000040: b4be 93bd e7eb 40bd 94c7 753d 8e07 ef3d
00000050: 21ce 9b3d d464 9c3d 3452 74bd fcf6 05be
00000060: cf52 38bd 436a df3d 93e3 4abd 25fc 3dbd
00000070: a262 dabc 3713 26bd 5cfc 733d 5f04 a7bd
00000080: 546d cfbd b963 e43c 9991 b13d 333f 11bd
00000090: d7ac 0d3c de07 6f3d 48f7 17bd 8211 b93d
000000a0: 2570 903c 9d4c 0ebe 2ab6 04bd a273 b5bd
000000b0: c61b 1bbd 82e4 083c 6969 51bd 6e21 f2bc
000000c0: 035c 2f3d da51 8ebd 7e2a 323d 8ba3 3f3c
000000d0: 58b4 e53c a51e 343c 0a08 313d 43fc 72bd
000000e0: 23bb 8b3b 2916 aebd f681 77bd ff33 bd3d
000000f0: 7e5b 8abd b2f8 173d 3eb4 cbbd eb9d 70bd
