models/dnn_entity_linker.pt (torch, 405964 bytes, 37 tensors)

input_bn.weight f4 [17]
000000 eb 05 ea 3e 69 86 66 3f b3 e2 37 3f 24 2c 2f 3f
       0.4570764 0.90048844 0.7183029 0.6842673
000010 0b 7b 48 3f c5 e0 35 3f bd 35 57 3f fc 39 60 3f
       0.7831275 0.71046096 0.84066373 0.8758848
000020 fe c3 53 3f 29 7c 68 3f 7b 37 61 3f 66 1d 2b 3f
       0.82720935 0.90814453 0.8797528 0.66841733
000030 64 39 51 3f a7 c6 7b 3f 32 af 89 3f a5 79 46 3f
       0.81728196 0.98349994 1.075659 0.77529365
000040 97 71 3f 3f
       0.747827

input_bn.bias f4 [17]
000000 2d a9 d1 bd b7 73 35 be ee 41 3a be 08 e0 03 3e
       -0.10237346 -0.17719923 -0.18189213 0.1287843
000010 91 2c 69 bd ff 0e 2b be 2f 8f 4d be 37 cf 1d be
       -0.056927267 -0.1670494 -0.20074151 -0.15411077
000020 0e cd d9 bd b6 87 4f be f9 c8 16 be 27 46 29 be
       -0.10634814 -0.20266613 -0.14725102 -0.16530667
000030 47 e8 5c 3d d8 5b 36 3e e6 03 35 bd fc 5a 1c be
       0.053932454 0.17808473 -0.04419317 -0.15269083
000040 a7 b1 46 be
       -0.19403706

input_bn.running_mean f4 [17]
000000 d3 c2 a7 3c 54 3a ab 3e 7a ad 92 3f 9d 98 4d 3f
       0.020478642 0.33442938 1.1459191 0.80310994
000010 29 fa c7 3c 34 9e 30 3e 41 2e e1 40 2e 5e 27 41
       0.024411278 0.1724785 7.036896 10.460493
000020 77 48 27 40 75 91 aa 40 80 10 1b 3d 9a 28 97 3c
       2.613798 5.330256 0.037857533 0.018451978
000030 4b 83 ae 3e fa 68 b5 3e 18 76 03 3e d4 2d a7 40
       0.34084544 0.35431653 0.12838018 5.2243443
000040 1d b9 6a 42
       58.680775

input_bn.running_var f4 [17]
000000 55 86 b6 3b 59 0f d8 3d 27 a9 25 3e 30 97 22 3e
       0.005570213 0.10549802 0.16177808 0.15877986
000010 4b 51 c4 3c 03 6f 12 3e 63 e8 aa 40 f2 e9 aa 40
       0.023964545 0.1430016 5.3408675 5.341058
000020 6e cd 24 3f 8d 84 a7 40 c2 3d 93 3a c5 e9 4d 3a
       0.6437596 5.2349305 0.0011233615 0.0007854964
000030 ec e8 66 3e 1b 31 8e 3d 40 1f 5e 3d b5 7e ba 40
       0.2254979 0.0694296 0.05422902 5.827967
000040 b9 19 1c 46
       9990.431

hidden_layers.0.linear.weight f4 [256, 17]
000000 de 9b 33 be 10 93 81 be 1c 03 a4 3e 0c 12 f1 bc
       -0.17539927 -0.25307512 0.32033622 -0.02942755
000010 72 1a 85 3e 61 09 36 bf 44 97 25 3c ac a8 c5 3d
       0.2599674 -0.7110806 0.010106865 0.09651312
000020 69 9d f7 3e 70 27 86 be 29 e7 e6 3d 4d ca d8 3e
       0.48362282 -0.26201963 0.11274559 0.42341843
000030 06 4a 4c 3f 86 ac 4e be 04 0b 24 3f a4 8e f5 ba
       0.7980045 -0.20183 0.6407931 -0.0018734527
000040 40 3f 88 bc 76 26 9f be 46 f4 35 bd 5e 61 1b bf
       -0.016631722 -0.3108403 -0.04442241 -0.60695446
000050 9c 54 9b bd 7f ee a7 be d9 65 86 be 3d f1 92 be
       -0.07584497 -0.32799146 -0.2624958 -0.28699675
000060 36 ae fc 3d 00 d8 50 bf 3c 39 22 3e 57 75 f3 3e
       0.123379156 -0.8157959 0.15842146 0.4755046
000070 ba 59 8c be 4d 4d 85 be b6 34 ee be 58 c6 d2 bd
       -0.27412206 -0.26035538 -0.4652459 -0.10291737
000080 8e 68 66 3e c5 93 c3 be dc 72 e1 3e a8 0c cd 3e
       0.22500822 -0.38198677 0.44032943 0.40048718
000090 bf 1c 90 be d8 56 f3 bd c6 7e 99 be 25 5e 0b bd
       -0.28146932 -0.118817985 -0.29979533 -0.03402533
0000a0 00 e1 c2 3e f3 1b aa bd 98 9a 95 3e 92 20 24 bd
       0.38062286 -0.08306112 0.29219508 -0.040070124
0000b0 41 56 4a bf e2 ab 40 bf 1c 86 81 3c 86 1f ad 3e
       -0.79037863 -0.7526227 0.015811019 0.33813113
0000c0 53 42 2b 3d d4 59 47 be 66 44 df 3e ba 49 3d bf
       0.0418113 -0.1946786 0.4360687 -0.7394062
0000d0 12 9f 0a 3d cb 61 85 3d 7b a4 22 3e 98 69 2b 3c
       0.033843108 0.06512793 0.15883057 0.010462187
0000e0 8c c7 59 3e 78 a4 2e bf f2 f2 68 3e 61 8d c2 3d
       0.21267527 -0.6821971 0.22748926 0.09499622
0000f0 5a cd 52 be bb d5 4b be 8a cd 12 3d 14 37 0b be
       -0.20586148 -0.1990575 0.03584055 -0.1359523
000100 6a 98 1f be a8 a2 43 be 0f dc 31 bd dc 21 bd 3d
       -0.15585485 -0.19105017 -0.043422755 0.09234974
000110 c8 23 84 be ee d9 12 be c5 31 06 be bc 4f 85 be
       -0.2580855 -0.14340946 -0.13104923 -0.26037395
000120 71 2a a5 be a6 a6 ac bd 3c 17 59 be a4 e7 25 be
       -0.32258943 -0.08430223 -0.2120027 -0.16201645
000130 c5 e5 61 3f 86 b4 18 3f d9 2c b9 3e 8c 45 5e 3e
       0.88241225 0.59650457 0.3616703 0.21706218
000140 ec a0 19 bf 01 97 af be 92 73 84 3e ef bb b9 3e
       -0.6001117 -0.34294894 0.25869423 0.36276194
000150 30 7b 08 3f d7 1b 27 3e 61 70 1c bd 6e 3a 5a be
       0.5331297 0.16319214 -0.03819311 -0.21311352
000160 15 55 97 3d 16 e7 7c bd 8d c8 04 bf 68 e0 a6 3e
       0.07389275 -0.06174382 -0.51868516 0.32593083
000170 d7 da 14 3e b7 f3 db be 66 50 65 3f ce f0 34 3f
       0.14536606 -0.42959377 0.89575803 0.7067994
000180 34 93 83 bc 58 bc 08 bf e1 aa 9f 3e bc 96 41 bf
       -0.016061403 -0.5341239 0.31185058 -0.7562063
000190 30 8b 4c be 5a 39 23 be af 06 f7 3c ac 11 9e 3e
       -0.19974971 -0.15939847 0.030154554 0.30872858
0001a0 f1 93 bb bc 83 25 d0 be 75 60 ae bd 40 dc 4c bd
       -0.022897692 -0.4065362 -0.085144915 -0.050014734
0001b0 ad 4b 00 3e 61 bf ce 3e 06 e4 d6 be 89 5d 9b be
       0.12528868 0.40380386 -0.41970843 -0.303448
0001c0 09 e5 cc 3e f0 92 23 bf 22 05 67 3e 45 47 31 3f
       0.4001849 -0.63896084 0.22560552 0.69249374
0001d0 79 6b 2b 3e 50 30 7d bd be 29 a5 be c2 c2 ab 3d
       0.16740216 -0.061813653 -0.3225841 0.083867565
0001e0 79 06 02 3d 43 ba 10 be 0c 81 da 3d 0c e7 2f 3e
       0.031744454 -0.14133553 0.10669145 0.17177981
0001f0 05 bf 95 be 05 76 6d 3e 89 b5 81 3e a1 a0 a3 bd
       -0.292473 0.23189552 0.25333813 -0.07989622
000200 63 f0 08 be bd e1 27 3e 94 a5 29 bf 4c 41 e1 be
       -0.1337295 0.16394706 -0.6626828 -0.4399513
000210 dc c2 b1 3e 5f 4c e3 3e c1 21 06 3e fa 2c 86 be
       0.34718978 0.44394204 0.13098814 -0.2620619
000220 64 ed 68 be 64 d9 ab 3f 85 69 94 3e 38 4e 41 3f
       -0.22746807 1.3425717 0.28986755 0.7550998
000230 fa 11 75 bd 42 3b e9 be d9 9e d3 be 3c 56 b2 3e
       -0.059831597 -0.45553023 -0.4133213 0.34831417
000240 ee bb a9 3e 90 d3 d0 3d a4 fa ab 3d de 90 56 3e
       0.3315119 0.10196602 0.08397415 0.209537
000250 a2 bf 5e be 06 2e b8 3e 75 d9 b2 be 5e f1 ce bb
       -0.2175279 0.35972613 -0.34931532 -0.0063153943
000260 20 d0 13 3d 70 d0 12 3e 68 44 2d 3e 4b 2b 52 3d
       0.036087155 0.14337325 0.16920626 0.05131082
000270 4f 87 b1 be 81 c3 50 3d e7 4a 9d be 08 8a eb be
       -0.34673545 0.050967697 -0.30721208 -0.46003747
000280 f7 2c 16 bf ef 3e af be 21 38 b2 3e 70 c4 59 3d
       -0.5866236 -0.34227702 0.34808448 0.053165853
000290 81 28 c8 be f4 2f cc be d2 d4 c0 bd 58 4b 42 3e
       -0.39093402 -0.39880335 -0.09415592 0.18974054
0002a0 53 2b 12 3f 70 d9 d4 be ce f6 02 bf e0 ca fa 3e
       0.5709736 -0.41572142 -0.51157844 0.48982906
0002b0 2d a4 02 3f 0f ed 34 3e ef c8 1a be 62 f8 36 3e
       0.5103176 0.17668556 -0.15115713 0.17868188
0002c0 c8 22 1d 3d 44 2b 10 3f 24 56 f6 3e 6c c5 d6 3e
       0.038363248 0.5631602 0.48112595 0.41947496
0002d0 6f 4a 44 be 6c bf 96 be 82 69 1b 3f 05 b8 26 3f
       -0.19169019 -0.29442918 0.6070787 0.6512454
0002e0 b2 9f 03 3f 21 21 a1 3e 8c 55 45 3f 6f e8 03 bf
       0.5141555 0.31470588 0.7708366 -0.5152654
0002f0 71 f9 53 3e 0c f0 26 3e f3 ab 23 3e b1 6c 14 bf
       0.20700623 0.16302508 0.15983562 -0.5797835
000300 14 31 dd 3e c7 78 07 bf 6b 7c 83 be a7 c7 a2 be
       0.43201506 -0.52918667 -0.2568086 -0.31792948
000310 60 8c 90 3d cb 56 c9 be 73 d8 87 3d 68 22 c9 3e
       0.070580244 -0.3932403 0.06633081 0.39284062
000320 06 80 cd be c7 ee d2 3c 6f 3d 92 3e c6 65 9a bf
       -0.40136737 0.025748624 0.28562495 -1.2062309
000330 5b cb 8b be c6 c4 6d 3e bd 00 58 be b8 30 b5 3b
       -0.27303585 0.23219594 -0.21094032 0.0055294894
000340 0c ac 01 3f ff 3e bd 3d 0e 77 00 bf a6 17 e8 bd
       0.5065315 0.09240531 -0.50181663 -0.113326356
000350 92 1b 95 3e ab ef 7b bd 12 17 96 3e 69 0a cc be
       0.29122597 -0.061507862 0.29314476 -0.39851692
000360 1f 89 9f be 94 d7 c4 3e 52 49 96 be af 17 cc be
       -0.31159303 0.38445723 -0.29352814 -0.3986182
000370 a6 7e be 3d e2 46 e2 be ba 94 7e be 56 95 0e 3e
       0.093015 -0.44194704 -0.24861422 0.13924155
000380 40 38 d2 3e 80 d2 10 3e 38 f3 4d 3d 94 43 f7 be
       0.4105854 0.141428 0.05028078 -0.48293746
000390 c4 38 0d 3e 0b 65 32 bd 06 94 ff 3e f6 62 b4 3e
       0.13791186 -0.043553393 0.4991762 0.3523175
0003a0 d2 1f e0 bd 21 ee e3 3e 74 27 4e 3e 4b 6f 70 3e
       -0.10943569 0.44517615 0.20132238 0.23479955
0003b0 9e 48 89 be 58 cc 36 3e 70 8a aa 3e 4d 7e 2a be
       -0.26813215 0.17851388 0.33308744 -0.16649742
0003c0 c5 14 c5 3d f2 c2 dd 3e 1c 43 02 3f 43 cd a8 3e
       0.09623102 0.43312794 0.5088365 0.32969102
0003d0 11 16 8a be c4 7e 39 3f 4e 78 e6 bd 66 eb a9 be
       -0.2696996 0.72459054 -0.11253415 -0.33187407
0003e0 a3 50 09 be 9f fd 32 bf 3e 42 16 bd 40 1f 35 bd
       -0.13409667 -0.69918245 -0.036684267 -0.044219255
0003f0 ee ff ce 3d a1 ed 9e be 39 88 20 3e 54 24 93 3b
       0.101074085 -0.3104067 0.15676965 0.0044904146

hidden_layers.0.linear.bias f4 [256]
000000 71 12 9e 39 aa 0f 75 b8 d5 c4 00 3a 7c 5d 16 ba
       0.00030149848 -5.842714e-05 0.0004912143 -0.0005735976
000010 a8 1e f8 b8 ef 64 d0 b9 14 35 9c 38 77 c6 a3 39
       -0.00011831272 -0.00039748053 7.448546e-05 0.0003123765
000020 33 cd 70 b9 18 b7 45 39 56 42 18 39 1e 64 33 ba
       -0.00022964626 0.00018855592 0.00014520562 -0.0006843227
000030 b0 cc 86 39 98 e8 3b 3a 56 9f a3 38 51 44 5d ba
       0.00025710976 0.0007168143 7.802124e-05 -0.0008440661
000040 55 57 15 b9 66 82 32 39 0d 57 d0 b8 b3 02 83 b9
       -0.00014242281 0.0001702398 -9.934427e-05 -0.00024988278
000050 b2 ab 0a b9 94 37 4a 3a d5 0a 11 b9 8c 5b 4e 39
       -0.00013224667 0.000771397 -0.00013832313 0.00019679795
000060 98 ef 8c 39 b7 84 9c b9 0b ff ef 37 4a 00 e9 b8
       0.00026881392 -0.0002985352 2.8609784e-05 -0.000111103596
000070 9d ba b5 b9 2b 0d e0 37 a1 f7 94 b8 c2 c4 62 39
       -0.00034662048 2.6709013e-05 -7.1033144e-05 0.00021626338
000080 50 5c c2 39 0f ad 25 3a 60 dc 9e 3a 0f 9f 0f ba
       0.00037071342 0.0006320038 0.001212012 -0.00054787187
000090 51 4f 0f ba 94 a8 07 39 94 9e 1f 39 31 42 92 b9
       -0.0005466836 0.00012937404 0.00015222497 -0.00027896606
0000a0 13 f2 d5 39 19 0c 39 ba 60 42 db b9 f5 35 3c b9
       0.00040806885 -0.00070589926 -0.00041820388 -0.00017949178
0000b0 6d 03 48 38 cc a5 14 b9 93 e3 45 39 8b 5c 5f b8
       4.7686906e-05 -0.00014176144 0.00018872162 -5.325353e-05
0000c0 96 58 c5 b9 08 62 0a ba 2e f9 75 3a c6 d5 55 b9
       -0.0003764077 -0.000527889 0.0009383139 -0.000203929
0000d0 c9 f7 23 b7 0d 5c a3 b8 83 b0 90 39 0e 02 4f b8
       -9.773249e-06 -7.7895915e-05 0.00027597332 -4.935456e-05
0000e0 be 49 04 39 8d b7 af 37 8f 7b 14 3a 0b 05 d0 37
       0.00012615972 2.0947098e-05 0.00056641636 2.479788e-05
0000f0 36 6b 11 b9 fe 59 8f 39 c0 22 07 39 74 a1 4e b8
       -0.00013868217 0.00027342135 0.00012887549 -4.9264592e-05
000100 c4 4b 1f b9 4e e3 d9 b9 ce d4 f3 38 e3 77 e9 38
       -0.00015191647 -0.0004155882 0.00011626781 0.000111326364
000110 71 8e 9d b8 a3 1c 50 b9 70 aa 30 b9 00 50 9b 38
       -7.512875e-05 -0.00019847094 -0.00016848161 7.405877e-05
000120 c0 e8 86 38 33 14 80 b9 3e 24 0a 39 71 98 09 b6
       6.432971e-05 -0.00024429112 0.00013174207 -2.0503323e-06
000130 68 c3 a9 b8 77 a6 03 bb e3 7c ad b9 c3 93 32 b8
       -8.094945e-05 -0.0020088234 -0.0003309018 -4.257612e-05
000140 74 eb a4 ba aa 69 9b ba 71 5b 94 38 b3 5e 07 b9
       -0.0012582378 -0.0011857052 7.074222e-05 -0.00012909881
000150 d5 d8 8b b7 11 ba d2 38 f0 8e 19 b9 4b 03 67 39
       -1.6671062e-05 0.00010048238 -0.00014644465 0.00022031103
000160 86 54 92 b7 fb d4 22 3a 20 4b 0f b9 5c 8b 86 b9
       -1.7443916e-05 0.0006211546 -0.00013665529 -0.00025662303
000170 53 94 9a 39 0c b3 24 39 98 24 23 b9 97 82 41 39
       0.0002948368 0.00015706959 -0.00015558524 0.00018454563
000180 19 8c 03 b9 8e ae 55 39 04 5f 26 ba 3d bb dd 38
       -0.00012545324 0.0002037829 -0.0006346556 0.00010572977
000190 29 97 41 b9 c4 c2 0f 39 f8 22 ae 37 3c 51 10 ba
       -0.00018462226 0.00013710099 2.07587e-05 -0.0005505269
0001a0 66 b7 8b b8 43 d8 1b 3a 31 13 40 b8 2f df e6 b7
       -6.662197e-05 0.0005945006 -4.579424e-05 -2.7522065e-05
0001b0 52 d9 ef 38 42 e4 7b b9 ca 24 c7 39 e6 e9 3a 39
       0.00011436887 -0.00024022258 0.00037983648 0.00017825476
0001c0 7d 6c b1 39 95 f7 4e 3a 7c 22 ef 38 c2 eb 04 3a
       0.000338409 0.0007895169 0.00011402831 0.0005070531
0001d0 d8 3e c1 39 10 a9 9a 38 d9 b8 b5 39 e0 10 4d 39
       0.0003685865 7.3747826e-05 0.00034660732 0.0001955661
0001e0 5f 1a d6 b7 d7 12 f4 39 96 8c 42 ba 93 a5 a4 b9
       -2.5523068e-05 0.00046553343 -0.00074214616 -0.0003140388
0001f0 e6 8b 43 39 df 33 a3 39 18 6c 14 39 57 eb 75 b9
       0.00018648765 0.0003112843 0.00014154648 -0.00023452692
000200 5a 25 da b9 0f 69 b3 b9 63 9c 28 b9 b3 1f 54 b8
       -0.0004160803 -0.00034219815 -0.00016079987 -5.057426e-05
000210 23 06 31 39 49 84 0b 3a 05 e9 af 39 f9 f3 09 b9
       0.00016882322 0.0005322141 0.00033552214 -0.00013156225
000220 e8 11 18 38 d1 a2 ea 36 b2 a9 99 39 09 85 8f b9
       3.62563e-05 6.9926978e-06 0.00029308867 -0.00027374204
000230 81 51 16 3a 61 25 54 3a 0d a0 a0 38 b0 9f f2 b8
       0.0005734191 0.0008092728 7.659206e-05 -0.00011569203
000240 8e b6 1d 39 7f 1e 68 b9 49 67 a1 b9 a1 04 2e b9
       0.00015040694 -0.00022136605 -0.00030785266 -0.00016595658
000250 fa 65 30 39 9a a7 6d b8 e4 97 6e b9 da 4e 37 b9
       0.00016822657 -5.6661294e-05 -0.00022754032 -0.00017481614
000260 8e 5c 3d 39 a5 81 88 38 cd 0a 74 b9 6d 2d ff b6
       0.00018058924 6.5091335e-05 -0.00023273677 -7.6048805e-06
000270 a4 3c 17 b8 4e 62 24 3a e7 6a ed 39 75 c2 27 39
       -3.605768e-05 0.0006270752 0.0004528381 0.00015998802
000280 af 37 83 b9 dc e6 19 ba 67 2a 68 ba b2 db 5a b8
       -0.00025027755 -0.00058708875 -0.0008856416 -5.2179857e-05
000290 83 ab 8f 39 9c 0b c0 b8 bf b6 f8 38 1d ff c3 b9
       0.00027402872 -9.157436e-05 0.000118596006 -0.00037383373
0002a0 ea 9d 6c 39 c6 43 9f b8 96 79 ba 38 10 1c a4 b7
       0.00022565541 -7.5943346e-05 8.891818e-05 -1.9563391e-05
0002b0 ce 13 d1 b9 50 e7 10 39 08 09 ff b9 c7 03 4b b9
       -0.00039878342 0.00013819081 -0.0004864412 -0.00019360996
0002c0 5f 08 b9 b9 8d 85 c0 37 8a f8 2e ba 34 86 11 ba
       -0.00035292187 2.2950373e-05 -0.00066746084 -0.0005551309
0002d0 70 87 54 39 8d 61 7f b9 85 8b a6 39 aa 46 a1 b9
       0.0002026835 -0.00024355036 0.00031765937 -0.00030760962
0002e0 e1 9a 9f b9 be 75 03 39 54 93 9d 39 3a 14 55 b9
       -0.00030442237 0.00012536996 0.00030055142 -0.00020320798
0002f0 5b 98 0b b9 c0 24 38 b9 4b 38 72 b9 1e 06 2b ba
       -0.0001331283 -0.00017561298 -0.00023099889 -0.0006524044
000300 bf 3d 43 b8 1a a2 55 b9 f9 84 04 ba 96 92 82 b7
       -4.654913e-05 -0.0002037365 -0.0005055215 -1.5565467e-05
000310 6c b2 60 38 69 92 d7 b8 cb 98 24 39 30 55 bc 38
       5.357193e-05 -0.0001027927 0.00015697179 8.980406e-05
000320 7a a3 ef b8 1b 14 c3 39 b7 25 ad 37 e1 95 f9 b9
       -0.00011426858 0.00037208278 2.064077e-05 -0.0004760465
000330 ef a7 aa b8 66 c0 9c b8 ee 53 5f 39 f9 10 f4 b9
       -8.137512e-05 -7.474497e-05 0.00021298204 -0.00046551952
000340 6c 19 ec b9 fa 22 f6 b9 a2 11 a9 b9 27 67 c2 39
       -0.00045032369 -0.00046946836 -0.0003224733 0.00037079418
000350 8b 0a 73 b9 a2 5f 42 b8 f3 46 12 b8 e6 d2 5c 3a
       -0.00023178213 -4.634227e-05 -3.487519e-05 0.00084237603
000360 cf 6e bf b7 bc 1c 62 39 a1 97 89 b9 14 79 10 39
       -2.2820574e-05 0.00021563744 -0.0002624365 0.00013778015
000370 30 f2 d1 38 63 88 14 3a 3d 7b f0 b7 5e 91 38 38
       0.000100110075 0.0005666075 -2.8667617e-05 4.4004402e-05
000380 41 b3 3b ba 73 a9 66 39 a1 82 15 b9 da 49 b4 39
       -0.0007160195 0.00021997634 -0.0001425841 0.000343873
000390 81 99 bb b8 07 a4 60 ba f1 37 c4 b9 8b 0d 39 b9
       -8.945447e-05 -0.0008569364 -0.00037425713 -0.0001764802
0003a0 59 e6 ea 38 c0 54 9a 37 62 5a 1e 3a 75 03 28 ba
       0.00011200895 1.8397695e-05 0.000604069 -0.00064092065
0003b0 56 13 30 b9 3a 38 0f 39 e6 01 19 ba 92 f9 f3 b6
       -0.00016791871 0.00013658489 -0.00058367697 -7.271018e-06
0003c0 49 dc 4b ba cb 60 a5 b9 6b 81 e4 38 9c 69 17 3a
       -0.00077766605 -0.0003154337 0.00010895993 0.000577593
0003d0 65 28 a1 39 53 fd b8 b9 93 de 81 3a 90 4c 75 38
       0.0003073841 -0.00035283956 0.0009908251 5.8483856e-05
0003e0 7e 0b e8 b9 a9 13 c6 39 21 a4 52 b8 7b 69 6d b9
       -0.0004425905 0.0003778015 -5.022076e-05 -0.00022641376
0003f0 f4 70 9f b9 16 25 ad b9 c5 08 42 b9 f8 fd f2 b8
       -0.00030411 -0.00033024763 -0.00018504549 -0.000115867646

hidden_layers.0.bn.weight f4 [256]
000000 3e ea 7f 3f d7 fe 78 3f fd 48 68 3f fe cb 84 3f
       0.999668 0.97263855 0.9073637 1.0374753
000010 cc 22 5c 3f 50 f0 6f 3f 98 26 8a 3f 4a 8c 7f 3f
       0.85990596 0.9372606 1.0793028 0.9982344
000020 31 83 70 3f 3a 01 85 3f d0 ab 67 3f e5 62 76 3f
       0.9395018 1.0390999 0.9049654 0.9624465
000030 e4 12 9a 3f f5 62 6e 3f 5f e7 8b 3f 3e 21 91 3f
       1.2037015 0.93119746 1.0929984 1.133827
000040 80 31 88 3f ea 57 5e 3f 4f b2 8d 3f 0f 3c 8b 3f
       1.0640106 0.86852896 1.107004 1.0877703
000050 5c 32 71 3f 5c 67 8a 3f 90 3a 69 3f 8d cf 7f 3f
       0.9421747 1.0812793 0.91104984 0.9992607
000060 4a 3a 6c 3f b6 51 7d 3f 77 49 7c 3f 16 4d 81 3f
       0.9227644 0.98952806 0.985496 1.010165
000070 93 ba 78 3f 32 55 83 3f 90 04 76 3f c9 48 72 3f
       0.9715969 1.0260375 0.9610071 0.9464231
000080 11 dc 8d 3f b3 65 88 3f 11 3b 80 3f fd 74 7e 3f
       1.1082784 1.0656036 1.0018026 0.9939726
000090 7d 84 6b 3f c0 03 67 3f d6 27 8d 3f 95 6c 7e 3f
       0.91999036 0.902401 1.1027782 0.99384433
0000a0 11 23 8f 3f d0 27 87 3f b4 f1 70 3f 5d f1 66 3f
       1.1182576 1.0559025 0.9411881 0.9021204
0000b0 40 56 83 3f c1 ef 86 3f f3 74 7c 3f c6 fb 77 3f
       1.0260696 1.0541917 0.9861595 0.9686855
0000c0 7b ac 76 3f 6b ae 70 3f 66 cc 78 3f fe 30 61 3f
       0.96356934 0.9401614 0.9718689 0.8796538
0000d0 2a 72 81 3f 09 9d 61 3f bf 56 76 3f 8a 57 7a 3f
       1.0112965 0.8813024 0.96226114 0.97789824
0000e0 de 19 86 3f 71 af 82 3f cd 86 5f 3f a0 01 82 3f
       1.0476644 1.020979 0.87315065 1.0156746
0000f0 44 bf 6d 3f 67 74 80 3f e5 62 76 3f 68 60 6b 3f
       0.92869973 1.0035523 0.9624465 0.9194398
000100 77 98 73 3f ba cb 7f 3f b4 31 6c 3f 71 0f 67 3f
       0.9515452 0.9992024 0.9226334 0.90257937
000110 ef fe 64 3f 5f 76 7b 3f e8 68 85 3f bb 47 76 3f
       0.894515 0.98227495 1.042264 0.962032
000120 29 11 72 3f c5 97 60 3f 39 54 65 3f 49 24 82 3f
       0.94557434 0.8773158 0.8958164 1.0167323
000130 96 4f 6b 3f b3 d9 90 3f 31 54 6d 3f a5 37 77 3f
       0.91918314 1.1316437 0.9270659 0.9656928
000140 6b cc 83 3f 50 5a 8f 3f c0 7c 79 3f 4b cf 77 3f
       1.0296758 1.1199436 0.9745598 0.9680068
000150 67 57 7c 3f 38 0c 85 3f 99 63 72 3f 90 fd 93 3f
       0.98570865 1.0394354 0.94683224 1.1561756
000160 ac 91 9b 3f fd 49 74 3f 0f 06 6a 3f f8 36 5c 3f
       1.215383 0.954254 0.91415495 0.86021376
000170 17 b7 72 3f 7f 74 7d 3f 7b 36 63 3f bd 82 71 3f
       0.9481062 0.99005884 0.88755006 0.94340116
000180 ba 73 7c 3f 19 e9 6f 3f 8a 07 5f 3f 67 e3 74 3f
       0.98614085 0.93715054 0.8712088 0.9565949
000190 b3 fa 83 3f 0e ff 6b 3f b1 92 6d 3f 33 b4 74 3f
       1.0310882 0.9218606 0.9280196 0.9558746
0001a0 0c b0 64 3f 1e fc 79 3f e0 a9 85 3f 6b 84 6b 3f
       0.89331126 0.97650325 1.0442467 0.9199893
0001b0 66 d1 80 3f 77 f7 6a 3f 56 bd 6e 3f 72 e9 79 3f
       1.0063903 0.9178385 0.93257654 0.97621834
0001c0 0d 1b 85 3f ed 68 6e 3f 8d 4e 7a 3f c9 a3 86 3f
       1.039888 0.93128854 0.9777611 1.0518733
0001d0 6a c6 7e 3f 81 4f 6e 3f be 34 7d 3f 81 22 65 3f
       0.99521506 0.93090063 0.98908603 0.89505774
0001e0 6a ca 55 3f 02 3d 7b 3f 38 7b 6d 3f d3 f0 9d 3f
       0.83511984 0.98139966 0.9276614 1.2339119
0001f0 3c 1d 6f 3f 9a ad 84 3f 68 a5 80 3f b0 24 7e 3f
       0.93403983 1.0365479 1.0050478 0.9927473
000200 0c f4 80 3f 62 05 6e 3f 64 e6 71 3f 33 68 70 3f
       1.0074477 0.92976964 0.94492173 0.93908995
000210 ec 79 6c 3f 32 45 8e 3f e8 97 73 3f 4f 79 74 3f
       0.9237354 1.1114867 0.95153666 0.954976
000220 91 05 71 3f d5 9f 76 3f fa 2e 62 3f 92 7d 72 3f
       0.9414912 0.96337634 0.8835293 0.94722855
000230 72 ef 71 3f d2 a8 72 3f 8e 3f 8c 3f f8 7f 77 3f
       0.9450599 0.9478885 1.0956895 0.9667964
000240 fc a8 6d 3f c6 3a 72 3f 27 0b 99 3f 6e 44 86 3f
       0.92835975 0.9462093 1.1956528 1.0489633
000250 55 be 7e 3f 3c 79 8a 3f 2f b6 72 3f 1a a8 90 3f
       0.99509174 1.0818248 0.9480924 1.13013
000260 f4 10 5d 3f 96 25 6e 3f 8e a3 66 3f 46 a9 77 3f
       0.86353993 0.930261 0.90093315 0.96742666
000270 33 ce 5f 3f 7b 24 70 3f d0 13 6f 3f 3b 58 6c 3f
       0.8742401 0.93805665 0.93389606 0.9232213
000280 d8 82 74 3f 54 04 84 3f 28 25 80 3f fc 1b 5b 3f
       0.9551215 1.0313821 1.0011339 0.85589576
000290 1b f6 8e 3f d9 4e 64 3f a0 9c 87 3f 10 f9 74 3f
       1.1168855 0.8918281 1.0594673 0.9569254
0002a0 e9 14 76 3f cf d3 6a 3f fc 18 71 3f 79 2a 76 3f
       0.96125656 0.91729444 0.9417875 0.9615856
0002b0 a3 b6 85 3f 9a 4a 90 3f 48 72 8e 3f b1 2e 80 3f
       1.0446361 1.1272767 1.1128626 1.0014249
0002c0 e3 f9 75 3f 3f 56 89 3f a3 c6 84 3f a2 2a 83 3f
       0.9608442 1.0729445 1.0373119 1.0247386
0002d0 14 a9 81 3f c9 2b 72 3f 31 4a 82 3f 15 f0 76 3f
       1.0129724 0.9459806 1.0178891 0.96460086
0002e0 27 6e 73 3f 07 59 9e 3f 55 f9 7b 3f ab 6a 63 3f
       0.95089954 1.2370919 0.98427325 0.8883464
0002f0 db b6 92 3f f6 fc 69 3f aa 8f 66 3f 48 ce 7f 3f
       1.1462053 0.9140161 0.90062964 0.99924135
000300 19 d5 64 3f 66 ca 8f 3f 9e b8 88 3f 2b 45 62 3f
       0.8938766 1.1233642 1.0681341 0.8838679
000310 f7 4a 6c 3f a3 95 77 3f f5 57 70 3f 37 9e 67 3f
       0.9230189 0.967127 0.9388421 0.9047579
000320 8d 2a 63 3f 02 74 75 3f 25 24 67 3f 11 70 7c 3f
       0.887368 0.9588014 0.9028953 0.986085
000330 c2 fd 60 3f 34 a0 5f 3f 56 0e 64 3f 19 9b 80 3f
       0.87887204 0.87353826 0.89084375 1.0047332
000340 02 87 8a 3f 16 1d 70 3f 02 75 80 3f 00 0c 81 3f
       1.0822451 0.9379438 1.0035708 1.0081787
000350 6a 1d 87 3f 40 3d 8b 3f 03 0c 7f 3f c7 d0 89 3f
       1.0555851 1.0878067 0.99627703 1.0766839
000360 c4 f3 84 3f 42 06 7c 3f 4d bd 70 3f 68 0f 65 3f
       1.0386891 0.9844705 0.9403885 0.89476633
000370 5c 3e 86 3f b8 b0 7d 3f f1 98 5e 3f 3e 00 72 3f
       1.048778 0.99097776 0.8695212 0.9453162
000380 7e 70 93 3f b6 7c 80 3f 2b 5a 6e 3f 90 11 6b 3f
       1.1518705 1.0038059 0.93106335 0.91823673
000390 42 b9 73 3f d6 4d 88 3f 6e b3 72 3f f3 00 79 3f
       0.95204556 1.0648754 0.9480504 0.97267073
0003a0 b2 02 72 3f ab 77 86 3f a5 08 78 3f 4a dc 8c 3f
       0.9453536 1.050527 0.9688819 1.1004727
0003b0 6b 45 7e 3f 86 9d 63 3f c9 ea 80 3f 89 51 67 3f
       0.99324673 0.88912237 1.0071651 0.9035879
0003c0 f5 3b 79 3f 5d 24 58 3f aa 8a 6e 3f 8d cb 75 3f
       0.9735711 0.84430486 0.93180335 0.9601372
0003d0 0e af 71 3f a7 37 75 3f 51 b9 84 3f c8 0a 90 3f
       0.9440774 0.95788044 1.0369054 1.125329
0003e0 ce fa 95 3f 22 83 72 3f 68 71 8a 3f 43 ab 85 3f
       1.1717165 0.9473134 1.0815859 1.044289
0003f0 40 06 69 3f 61 84 6c 3f 43 c4 78 3f f5 08 6f 3f
       0.9102516 0.92389494 0.9717447 0.9337304

hidden_layers.0.bn.bias f4 [256]
000000 f6 91 21 3d 8d 31 97 ba 14 e2 50 3d ed 66 c5 3c
       0.03944584 -0.0011535153 0.050996855 0.02409693
000010 f8 e5 f3 bd 34 7a c9 bd 10 35 07 3d fd 9d 80 3d
       -0.119090974 -0.098377615 0.03300959 0.06280134
000020 cc 41 96 3c 0a 09 d4 3c a0 96 bd bd ee 74 0c be
       0.018341921 0.025883216 -0.09257245 -0.1371648
000030 58 ba 42 3e d5 f0 07 be 4b 09 b8 3b 38 3d 9d bb
       0.19016397 -0.13275464 0.005616342 -0.0047985576
000040 97 16 f8 3c b1 6a de bd 60 9e ae 3c 9c 0f 65 bb
       0.03028421 -0.108601935 0.021315753 -0.003495193
000050 7d d0 ca bc e9 27 23 3d c8 42 b9 3d 05 06 6a bd
       -0.024757618 0.039832983 0.09045941 -0.057134647
000060 a2 8d c8 bd bf 4a fc 3b 17 d0 47 bd 1f 8e ce bd
       -0.09792639 0.00769934 -0.048782434 -0.10085701
000070 32 c8 2e 3d 75 45 04 bd 57 bf 53 bb 56 97 36 bd
       0.04267139 -0.032292802 -0.0032310092 -0.04457792
000080 22 26 1a 3e e3 28 dd 3c 87 7e a0 bc b4 64 d0 3c
       0.15053609 0.026997035 -0.019591583 0.025438644
000090 c6 7e ac bd 5e 67 0f bd 0f 0b c6 3d 22 3b 4f bd
       -0.084226176 -0.035010688 0.09670078 -0.050593503
0000a0 2d fb 5e 3d c2 58 e6 3d 2f 07 b0 bd c9 8d f1 bd
       0.05443876 0.11247398 -0.0859512 -0.117946215
0000b0 f8 37 c2 bb 40 dd f8 3d ef c5 df bb cd d4 aa bd
       -0.005927082 0.12151575 -0.0068290154 -0.0834137
0000c0 65 1c 2c bd 65 83 46 bc 96 ab 80 3d a9 bb 10 be
       -0.042019267 -0.012116288 0.062827274 -0.14134087
0000d0 0e e1 dd 3c ca 21 21 be 2d 72 10 bd 33 c4 c1 bc
       0.027084854 -0.15735546 -0.035265137 -0.023653125
0000e0 f6 f7 95 3d ed 6c a5 bd 07 cb 11 be f5 1c d0 bd
       0.073226854 -0.080774166 -0.14237605 -0.10161773
0000f0 de a9 e6 bd ec 91 59 3d f6 b9 b3 bc 3c 19 8a bd
       -0.11262868 0.053117678 -0.021939259 -0.06743094
000100 fe 65 b3 bb d4 bd 01 3d 63 e0 43 bd 41 8a 19 bd
       -0.005474805 0.031675175 -0.047821414 -0.037485365
000110 65 4e 81 3b 2e b2 1f 3c 03 26 4d 3d 04 8d fe 3c
       0.003946113 0.009747071 0.05008508 0.0310731
000120 0a 17 e2 bc 70 bd 08 be 18 db ed bd d3 c9 a0 bc
       -0.027598877 -0.13353515 -0.116140544 -0.019627487
000130 de 39 d3 bd 7e 68 d8 3d 3e 2a 45 3c 31 c1 8d bd
       -0.10313772 0.10566805 0.012033997 -0.06921614
000140 5c 42 76 be f7 b2 60 3d 0f fb 3e 3d c6 73 f2 bc
       -0.24048752 0.054858174 0.046626147 -0.02959622
000150 dd c6 1c 3d cb 88 b5 bd 0b e1 90 bd ad c5 14 3e
       0.03827559 -0.08863982 -0.070741735 0.14528532
000160 21 b7 a7 3d d0 f2 dd bb 26 5f b8 bc 52 ac 0c be
       0.08189226 -0.0067733303 -0.022506308 -0.1373761
000170 7a 94 0c be 58 82 0a bd 46 38 3c be 32 56 b6 bd
       -0.13728514 -0.03381571 -0.18380842 -0.08903159
000180 6a 72 95 3d 7a 9b d4 bc 6a c2 c8 bc ac 7c e0 bc
       0.072972134 -0.025953043 -0.024506766 -0.027403198
000190 4c 62 43 3b 14 bd 86 bd 94 0c 41 bd 6c 73 63 3a
       0.0029813228 -0.065790325 -0.047131136 0.0008676562
0001a0 b6 e1 01 be 1e 8f 05 be 01 7d d3 3d c6 a4 b3 bd
       -0.12683758 -0.13042876 0.10326577 -0.087716624
0001b0 b7 49 3a bc 02 d5 e6 bd 1d 19 31 bd 24 50 3a be
       -0.011370114 -0.11271097 -0.04323684 -0.18194634
0001c0 92 fc 86 bc 85 b2 06 bd bf d9 26 bd cf fc a1 3d
       -0.016477857 -0.032885093 -0.040735003 0.079095475
0001d0 a4 a9 26 bd 6e 6c a1 bc 97 fd 8b bd 35 2b 02 be
       -0.040689126 -0.019705024 -0.06835478 -0.12711795
0001e0 37 20 11 be 1b ef d2 bd 50 0d cb 3a 70 d0 89 3d
       -0.14172445 -0.10299512 0.0015491638 0.067292094
0001f0 64 77 cb bd dc d1 4f bb 4e e0 b8 ba 6b b9 35 bc
       -0.09934881 -0.003171078 -0.0014104934 -0.01109157
000200 b5 56 57 bd f4 a2 4f bd ae a6 93 bd f6 33 c0 3c
       -0.052572925 -0.050692514 -0.07209526 0.023462277
000210 42 48 ea bd ea d8 ff 3d 55 b2 23 3d 60 b5 9c bd
       -0.11439563 0.12492545 0.039964993 -0.07651782
000220 b9 8c 30 bd dc ac c0 bd d3 06 e3 bc c7 72 bf bd
       -0.043102954 -0.0940797 -0.027713215 -0.09348064
000230 5c 8b 32 be 8d de 7b 3c 0f 1a 9d 3d c5 39 c7 bd
       -0.17435974 0.015372884 0.07670986 -0.097278155
000240 9a 14 1f 3c 6c 1d c3 3b f9 7e 0b 3e e6 0b a6 bd
       0.009709502 0.005954435 0.13622655 -0.08107738
000250 77 8d 9a bd 61 f5 95 3d de b4 3c bd 54 df d3 3d
       -0.075465135 0.07322193 -0.046070926 0.10345331
000260 dc a1 6e bd c1 a9 07 be da 65 17 39 bb c3 e6 bb
       -0.05825983 -0.1324835 0.00014438425 -0.007042376
000270 78 dc f1 bd 1c 3e ac bd d1 8c cc bd 55 68 ad bd
       -0.11809629 -0.08410284 -0.09987796 -0.084671654
000280 82 48 19 bd d3 99 09 bd 68 0a dd b9 e9 5b b3 bd
       -0.037422664 -0.033593964 -0.00042160158 -0.08757765
000290 ec 52 64 bc 47 47 c7 bd 2e 82 41 3d de 49 6b bd
       -0.013935786 -0.09730392 0.04724329 -0.057443492
0002a0 86 84 15 bd 2a ad 06 be 71 5b d4 bd 8f e8 9c 3c
       -0.036503337 -0.13151994 -0.103690036 0.019153861
0002b0 ff b9 3f bd 6a 2b a9 3d 5c f6 26 3e 64 98 2b 3c
       -0.04680824 0.08260234 0.16304916 0.0104733445
0002c0 d7 6f be bd f5 88 8a 3d 9a fb 54 bd 51 7d 48 3c
       -0.092986755 0.06764404 -0.05199776 0.012236909
0002d0 9c 46 36 3b fd e5 5f 3d 16 e0 67 3d 3c 78 2a 3c
       0.0027813083 0.054662693 0.05661019 0.010404643
0002e0 4a 45 ff bb 1c 56 98 3d 75 38 0d be 44 85 c6 bd
       -0.0077902423 0.07438299 -0.13791068 -0.09693387
0002f0 3f 02 a6 bd 45 51 72 bd 66 2e 98 bd 20 ce 0c 3d
       -0.08105897 -0.059159536 -0.07430725 0.034376264
000300 bb d5 ee bd 1a c8 95 bc 04 fe ee bd 19 79 5a bd
       -0.116618596 -0.018283892 -0.116695434 -0.053338144
000310 f7 9f 9f bb 87 95 fb 3c 5a 8a 7c bd a4 8c ea bd
       -0.004871364 0.030710949 -0.06165538 -0.11452606
000320 6e 81 f0 bd a2 40 63 bb 50 35 20 bd a5 12 95 bd
       -0.11743437 -0.0034675975 -0.039113343 -0.07278947
000330 e3 83 bf bd 8b b8 e9 bd bc 21 85 bd 38 e4 18 be
       -0.09351327 -0.11412152 -0.06500575 -0.14930809
000340 dc e0 89 3c 2b b0 87 bd 94 cc 38 bd 8b cc 67 3d
       0.016830854 -0.06625398 -0.045116976 0.05659155
000350 5a 15 bd 3c 9f a7 9d 3d 94 f1 f8 3c 05 41 d4 bb
       0.02308147 0.07697987 0.03038863 -0.0064774775
000360 2c 1a 5d 3d ab f8 c2 bd ea a0 ed 3c 9c 0b c9 bd
       0.053980038 -0.09520086 0.029007394 -0.098166674
000370 48 1c ff bb ac f9 aa bd 89 62 c5 bd a7 47 f4 bd
       -0.007785354 -0.083484024 -0.09637935 -0.11927729
000380 24 37 4e 3d 33 8c 93 3c 61 5a 83 bd 20 44 dc bd
       0.050345555 0.018011188 -0.06413723 -0.10755181
000390 7f 20 b5 bd 58 15 3f 3e 99 49 de bc 65 02 c5 3c
       -0.08844089 0.18660486 -0.027134703 0.024048993
0003a0 6e 52 d7 bd 3e 6d ff 3b ef 99 2b 3c ea 5a c6 3d
       -0.10513769 0.007795005 0.010473712 0.09685309
0003b0 f8 47 c3 3b 0b 7c 2d ba 00 5c c9 3d 68 08 ba bd
       0.005959507 -0.000661791 0.09832001 -0.090836346
0003c0 48 55 5d 3d 31 87 19 be 87 55 e1 bd 37 76 78 3d
       0.05403641 -0.14992978 -0.11002641 0.060659613
0003d0 0a c9 92 bd 0f e5 ee 3c dc 13 4f bc c4 41 03 be
       -0.071672514 0.029161958 -0.012639012 -0.12818056
0003e0 17 c6 b5 3d b2 c9 ce bd 0f 72 54 3d 84 c7 fc bd
       0.08875673 -0.10097064 0.051866587 -0.12342742
0003f0 2d cb 9b bd c4 ff 0f be f2 76 0e be 8e e4 58 bd
       -0.07607112 -0.1406241 -0.13912562 -0.05295234

hidden_layers.0.bn.running_mean f4 [256]
000000 1f 68 7b bc c8 dd 62 3e aa 6d cf 3d 94 db 25 3e
       -0.015344649 0.22154915 0.10128339 0.16197044
000010 04 c5 da be 78 dd 98 bd 97 90 30 3e c3 53 1a 3e
       -0.42728436 -0.07464117 0.17242657 0.15071015
000020 1e 79 d7 bd 7f 09 cf 3d 40 b0 b4 be 01 53 a3 3e
       -0.10521148 0.10109233 -0.35290718 0.31899264
000030 21 f3 58 3e 5c 11 cb 3d ea 78 e2 3d 36 7b 9b 3c
       0.21186496 0.099154204 0.11058219 0.01897965
000040 2c 64 13 3f 24 93 a3 bd 27 d4 36 3d c5 f2 1d 3d
       0.57574725 -0.07987049 0.044635918 0.0385616
000050 0b 6c 56 bd 9f 2b 97 bd 7e 78 dc 3d d6 e6 87 3e
       -0.05234913 -0.07381367 0.107651696 0.265433
000060 da a1 a2 be ef 03 44 bd db da cc 3e 58 db 8a 3d
       -0.31764108 -0.047855314 0.40010723 0.06780118
000070 e8 8f bc 3d 3d ed 69 3d 79 70 55 3e 9d fa 32 3e
       0.092071354 0.057111014 0.20843686 0.17478414
000080 be 5b 6c 3e ad 5c 87 3c 7c f7 c1 3d 5a 82 ba be
       0.23081872 0.016523683 0.09471032 -0.36427575
000090 46 ae 6d 3c 5f 46 50 be 62 e9 23 3f d0 57 28 be
       0.014506882 -0.20339344 0.6402799 -0.16439748
0000a0 b2 0f c3 3d 47 74 8c 3e 02 d1 9e bd bc 26 bb bd
       0.09524478 0.27432463 -0.07754709 -0.09138247
0000b0 3d da f4 bd 94 d8 e1 3e 27 4e 5e be c3 cd 6b 3e
       -0.11955688 0.44110548 -0.217095 0.2302771
0000c0 ed 8c 92 3e fa 49 6c 3d ff 2b 09 3e 19 2d 63 be
       0.28623143 0.057687737 0.1339569 -0.22185172
0000d0 bd 33 b8 3e a6 b0 96 3d fc 0d 9f bd c2 c6 52 3e
       0.35976973 0.07357912 -0.07766339 0.20583633
0000e0 5f 2f f0 bd 1e 0e 42 be f5 b3 1e bf 15 a8 36 3d
       -0.11727785 -0.18950698 -0.6199334 0.04459389
0000f0 be 01 ae 3d e5 94 24 3d bb 89 cc bd fd 74 ba be
       0.08496426 0.04018106 -0.099872075 -0.3641738
000100 11 34 9f 3c b0 f4 61 3e 29 ba e5 3d f4 a9 23 be
       0.019434007 0.22065997 0.11217148 -0.159828
000110 19 34 1b bf a1 ed 99 be ff 4b d3 bb 3e db 9a 3e
       -0.6062637 -0.3006411 -0.0064482684 0.30245394
000120 99 17 ba 3d 68 69 e4 bb 94 98 95 be 1a 4d c0 3e
       0.09086532 -0.006970573 -0.2921797 0.37558824
000130 3f 82 c1 3e 5e 72 10 3e 2a 09 3c 3e 42 d1 d6 3e
       0.37794682 0.14106128 0.18362871 0.41956526
000140 13 98 c0 3c b3 6a 0a 3e cc bb 10 be 01 e4 1d bd
       0.023510015 0.13517265 -0.14134139 -0.03854752
000150 03 83 af be 17 c6 ad 3d f8 d2 db bd a3 fd 91 3e
       -0.34279642 0.08485048 -0.107335985 0.28513822
000160 28 e0 99 3e 46 c2 58 bd fe d3 b7 bc 63 18 01 3e
       0.3005383 -0.05291965 -0.022439953 0.12606959
000170 41 b1 8c 3e 7b a4 64 3e 52 2d 20 3d 5d 2e 00 bf
       0.27478984 0.2232837 0.03910572 -0.50070745
000180 8d 1c 59 3e 3a 1b ce be 56 e4 b7 3c ff a5 e8 3d
       0.21202298 -0.40255147 0.022447746 0.11359786
000190 0d 2c af 3e 9c 86 62 3d 7b 0d dc 3e 47 45 0e 3d
       0.34213296 0.055304155 0.42979035 0.034734037
0001a0 aa cc 59 be c6 77 13 3e 16 e9 52 3e 2b 1a 9e bd
       -0.2126948 0.14401159 0.20596728 -0.07719835
0001b0 36 ab bb 3e f0 25 3b bc 7c 81 33 bc a4 8c d3 bd
       0.3665406 -0.011422619 -0.010956164 -0.103295594
0001c0 f3 16 87 3e c6 50 83 3d 1d a3 ae 3d ff d2 20 bd
       0.26384696 0.06411891 0.08527205 -0.03926372
0001d0 62 6d f9 bc c2 23 36 be 86 5e 6d bd 8d f8 c2 3d
       -0.030447666 -0.17787078 -0.057951473 0.095200635
0001e0 82 e6 c7 bc c9 0c 2d be af de e4 3c 95 4e c8 3e
       -0.024401907 -0.16899408 0.027938215 0.39122453
0001f0 99 ec 0d 3e b3 1e 88 3d 79 51 9a 3e 63 b1 25 3e
       0.13859786 0.066464804 0.30140284 0.16180949
000200 2e 06 89 be e2 6f 98 3d 03 95 8a 3d e2 50 93 bd
       -0.26762527 0.07443215 0.06766703 -0.071931615
000210 33 e6 85 be 52 aa 81 3d 71 bf 4a bc 8a 05 d8 be
       -0.2615219 0.06331314 -0.012374745 -0.42191726
000220 f0 c8 36 3d 5e 9b a6 3c b1 89 9a be 65 6f 78 3d
       0.044625223 0.020337757 -0.30183175 0.06065311
000230 ac 57 21 3e 93 31 3d bc 6d aa 6f 3e 73 f7 6e 3e
       0.157561 -0.011547464 0.23404856 0.23336582
000240 31 35 2d bf f1 41 46 be c4 ed 91 3e 6c f8 59 3e
       -0.6765929 -0.19361092 0.28501713 0.21286172
000250 dc 19 0d be 3c ad c4 3e 3a 5f fe 3d a0 36 c7 3d
       -0.13779396 0.38413417 0.12420507 0.09727216
000260 21 b0 33 3d c0 47 4a 3f 9a 92 3e 3e 8a 7c 11 3e
       0.04386914 0.7901573 0.18610612 0.14207664
000270 0e 9a c0 3d aa a6 4a be 21 c4 c8 bd 90 d5 ed 3d
       0.094043836 -0.1979014 -0.098030336 0.116129994
000280 d9 0a 80 3d 6d ff c4 bd ff 0a 20 3e 76 25 14 3d
       0.06252069 -0.09619031 0.15629195 0.036168538
000290 d4 07 a7 3e 8d b7 c8 bc c5 b3 93 3e 0e af dd bc
       0.3262316 -0.024501586 0.2884809 -0.027061012
0002a0 5a 52 fb 3d c0 d7 4e 3d f7 c4 95 be 3d 89 84 3c
       0.12271567 0.050498724 -0.29251835 0.016178722
0002b0 f7 d1 80 3e 04 2b 93 3e 9b 24 6a 3e 74 5b c1 3e
       0.2516019 0.28743756 0.22865526 0.37765086
0002c0 7e 07 61 bd f1 a4 aa 3e b2 ec 5c 3e 28 a0 a2 3e
       -0.054938786 0.33328965 0.21574667 0.31762815
0002d0 9b 38 71 3d 42 84 ec bd e4 e2 86 3c e0 84 e5 bc
       0.058891874 -0.11548664 0.016465612 -0.028017461
0002e0 cc f0 89 bc 5e 29 8d 3e e9 ef 2d 3e 76 df 84 be
       -0.016838454 0.27570623 0.1698605 -0.25951737
0002f0 e8 47 f6 bc 0e 13 c4 bd 45 cd 88 be 2e 0d d4 3d
       -0.030063584 -0.09573947 -0.26719108 0.10354076
000300 10 a0 8a 3e dd 39 a6 3e b7 26 07 3d cb a9 8b be
       0.27075243 0.3246602 0.032995906 -0.2727798
000310 88 f7 84 3c 56 1f ea bd ae f8 0e 3e 40 b4 d6 be
       0.016231313 -0.11431758 0.13962051 -0.41934395
000320 30 6b 4e 3e bc f4 0e be 39 5d 30 bd 2a d2 40 3e
       0.20158076 -0.13960546 -0.043057654 0.18830171
000330 2d 2a 37 be 63 86 2c be 64 39 05 be d5 59 be bd
       -0.17887183 -0.1684814 -0.13010174 -0.09294478
000340 6a 05 55 3d bb fc bf bd 18 ff 84 bd 2c 42 5d bd
       0.052007116 -0.093743764 -0.06493968 -0.054018185
000350 c5 6c d6 bc dd 9b a2 3e d4 66 d7 3e aa 74 e9 bd
       -0.026174912 0.3175954 0.4207064 -0.11399205
000360 56 bd 1b be 52 17 b7 bd e5 2b 50 bd 3c 29 a8 be
       -0.15208945 -0.08939995 -0.05082311 -0.3284396
000370 5c 48 06 bd fe 89 35 3e e0 49 85 be 95 26 ae bd
       -0.03278385 0.17728421 -0.26032925 -0.08503453
000380 e0 b0 2a 3e 0a f4 db 3e 63 1a 3d 3d e7 3d 84 bd
       0.16669035 0.42959625 0.046167742 -0.064571194
000390 aa fc 8a 3d d6 33 49 3e f6 22 26 be d0 12 44 be
       0.06786473 0.1964868 -0.16224274 -0.19147801
0003a0 b1 b8 07 3e d3 4e 1f 3e 11 94 7c bb 37 9d 72 3e
       0.13254048 0.15557413 -0.0038540403 0.23692785
0003b0 0e 82 b1 3e 1b 04 eb be e3 c1 b0 3e 79 77 59 be
       0.34669536 -0.4590157 0.34522924 -0.21236981
0003c0 33 88 3a be 99 5f 73 bd f7 bc 01 be c3 8e 1e bd
       -0.18216018 -0.05941734 -0.1266974 -0.038710367
0003d0 75 e4 08 3e 5a c5 5d be 20 aa 51 3e 2d 83 4c 3d
       0.133684 -0.21657315 0.20475054 0.049929786
0003e0 c4 d5 8e 3e e7 ed 5e bc 0f 10 5a 3e 43 e4 84 3e
       0.27897465 -0.013606525 0.21295188 0.259554
0003f0 36 f7 3b 3e 8a cc 07 be 22 ce 33 bb 48 8b aa be
       0.18356022 -0.13261619 -0.0027436097 -0.33309388

hidden_layers.0.bn.running_var f4 [256]
000000 77 fb ac 3f 08 57 98 3f 79 da b1 3f f4 87 0f 3f
       1.3514241 1.190156 1.3894798 0.56066823
000010 eb 28 a3 3f 12 8c ca 3f 71 1f e0 3f 8e 8c a1 3f
       1.2746862 1.5823996 1.7509595 1.2621019
000020 af 46 24 40 9f 2d 8a 3f 3f bc 43 40 0e 45 cc 3f
       2.5668142 1.0795172 3.0583646 1.5958574
000030 1b ad c1 3f 74 74 ec 3e 13 ef 37 3f 0f 6e be 3e
       1.5130953 0.46182597 0.71849173 0.37193343
000040 b6 5d 9b 3f d8 99 23 3f 04 f9 8a 3f e4 8e 3c 3f
       1.2137973 0.6390662 1.0857244 0.73655534
000050 fa 8e 2e 40 05 8e 81 3f 67 5f 9c 3f 03 28 f4 3f
       2.7274766 1.0121466 1.2216614 1.9074711
000060 25 0c ce 3f 18 2c 28 3f d7 c9 a9 3f 81 4d 79 3f
       1.6097456 0.6569228 1.3264722 0.97383887
000070 b5 ee 96 3f 10 a8 0d 3f fd c0 f8 3f e5 55 61 3f
       1.1791598 0.5533457 1.9433895 0.8802169
000080 3f 3b d3 3f 5e ca 94 3f e1 ee c3 3e 2e f1 cd 3f
       1.6502455 1.1624258 0.38268188 1.6089227
000090 00 6d 4f 3f 6d 4e 18 40 e0 ea e0 3f 28 a6 97 3f
       0.81025696 2.3797867 1.7571678 1.1847582
0000a0 66 36 ff 3f 0e 15 14 40 75 c3 9e 3f a3 c2 c8 3e
       1.9938476 2.313785 1.2403399 0.39210996
0000b0 af 98 95 3f 93 39 68 40 c5 89 84 3f 7e a9 81 40
       1.168722 3.628514 1.0354544 4.05194
0000c0 2f 44 bb 3f 26 27 f9 3e 96 31 bc 3f cc ba 14 40
       1.4630183 0.4866268 1.4702632 2.3239012
0000d0 ec b1 b0 3f c9 88 91 3f b4 e8 02 3f 11 f8 96 3f
       1.3804297 1.1369869 0.51136327 1.1794454
0000e0 43 d9 b8 3f 1f 39 05 40 1e cc ff 3f b1 b7 5a 3f
       1.4441303 2.0816114 1.9984167 0.8543654
0000f0 2a 20 58 3f 95 74 79 40 61 d6 79 40 13 4b 62 3f
       0.8442408 3.8977406 3.9037097 0.88395804
000100 8c ee 39 40 8c 18 8e 3f 60 fa a4 3f 35 df 45 3f
       2.9051847 1.1101241 1.2888908 0.7729371
000110 70 b9 32 40 dc 6e 00 40 2f 8a 13 40 1a 30 98 3f
       2.7925682 2.0067663 2.305309 1.188968
000120 66 c2 49 40 ff ca 99 3f d5 66 bf 3f 80 c3 c2 3f
       3.1524901 1.2015074 1.4953257 1.5215912
000130 d3 d7 19 40 af 39 44 3f f8 c8 b9 3f c3 8c 03 40
       2.4037979 0.7665052 1.4514456 2.0554664
000140 eb fc c4 3e b5 ff bd 3e af d1 a2 3f 18 2d 43 3f
       0.3847421 0.3710915 1.272024 0.7624068
000150 30 0e 07 40 d6 19 17 40 8c 83 e5 3f b1 5f 69 3f
       2.110241 2.360952 1.793077 0.9116164
000160 88 44 d1 3f 28 22 3d 3f ee 3c b9 3f b2 20 d7 3f
       1.6349039 0.73880243 1.4471719 1.6806853
000170 fb 51 a7 3f 3a b5 bb 3f 57 f6 44 3f 62 7a 8c 3f
       1.3071893 1.4664681 0.76938385 1.0974848
000180 99 b3 b0 3f 9c a2 22 40 b1 a7 20 3f ab b7 ca 3f
       1.3804809 2.541175 0.62755877 1.5837301
000190 a8 10 de 3f 7c 08 06 40 a8 74 b2 3f 91 e5 04 3f
       1.7348833 2.0942678 1.3941851 0.5191279
0001a0 b7 83 39 3f 59 62 d3 3e 0e be fa 3f fa d6 df 3f
       0.72466606 0.4128597 1.958925 1.7487481
0001b0 1a 5f e8 3f e7 46 09 3f bf d0 f4 3f d7 22 98 3f
       1.8154023 0.53623813 1.9126204 1.1885632
0001c0 82 ae 94 3f fd 62 82 3f e5 4f c1 3f 07 73 25 3f
       1.1615756 1.0186459 1.5102507 0.6462864
0001d0 18 e2 0a 3f 4d e8 ab 3f 99 56 4f 3f ec 71 3e 3f
       0.5425124 1.3430268 0.8099151 0.7439258
0001e0 c7 33 50 3f 47 28 63 3f ee b4 73 3f fe 72 42 40
       0.81329006 0.88733333 0.9519795 3.0382686
0001f0 ad 45 82 3f d3 79 bd 3f 78 f4 4c 40 51 d6 0c 3f
       1.0177513 1.4802803 3.2024212 0.5501452
000200 44 99 64 3f 33 d7 98 3f 19 2d 14 3f 97 c5 82 3f
       0.89296365 1.1940674 0.57881314 1.021655
000210 18 44 1b 40 2a cc 69 3e e8 d3 9f 3f 0e a4 30 40
       2.426031 0.22831789 1.2486544 2.760013
000220 bd 1c 26 3f 3b 71 7f 3f ad 84 f0 3f 09 67 40 40
       0.648876 0.9978215 1.879049 3.0062888
000230 b4 ac a5 3f 21 1c f9 3e aa 05 3e 40 66 77 cb 3f
       1.294333 0.48654273 2.9690957 1.5895813
000240 58 6e 1f 40 8b f1 9d 3f 97 d3 0f 40 3f 22 cf 3f
       2.4911098 1.2339338 2.2472894 1.6182326
000250 3e 3c f8 3f 9e 8e a2 3f a9 77 41 3f 0c a2 25 40
       1.9393384 1.2699773 0.7557321 2.5880156
000260 e4 f7 e1 3f b3 72 7b 40 1b ad 53 3f 59 d9 15 40
       1.7653775 3.9288757 0.82686013 2.3413908
000270 b9 25 76 3f bd 12 62 3f 05 3d a8 3f 29 3e 48 3f
       0.9615131 0.8830984 1.3143622 0.7821985
000280 4d d6 c8 3f 0d 0d 8c 3f a3 b3 b9 3e 26 dd 6c 40
       1.56904 1.0941483 0.36269864 3.7009978
000290 8e f0 1e 40 70 0a 57 3f 7f 5f 97 3f 21 cd 0d 40
       2.4834323 0.840003 1.1826018 2.215645
0002a0 24 cd 99 3f b1 01 e9 3f 1e d3 7e 3f ee e2 23 40
       1.2015729 1.8203641 0.9954089 2.5607257
0002b0 04 cd 7d 3f 3d 30 36 3f 19 82 4d 3f 60 b7 b3 3f
       0.99140954 0.71167356 0.8027664 1.4040337
0002c0 a6 4b 6f 3f ce c7 db 3f 0c ca 34 3f d0 30 7d 3f
       0.93474805 1.717035 0.706208 0.98902607
0002d0 28 84 9f 3f 8b e6 d8 3f 01 4c a3 3f 05 16 84 3f
       1.2462206 1.6945356 1.275757 1.031922
0002e0 f8 19 5d 3f fa ad a0 3f 0e 51 2d 3f 6b 85 6c 3f
       0.8636775 1.2553093 0.67701805 0.9239108
0002f0 a2 e0 3b 3f 53 99 1b 40 bc 33 df 3f 86 c4 65 3f
       0.7338964 2.4312332 1.7437663 0.89752996
000300 10 2c 0a 40 13 17 40 3f ac 72 d4 3f 31 cc 5f 3f
       2.1589394 0.7503521 1.6597495 0.87420946
000310 db ce 2b 3f 5f 64 64 3f e2 22 86 3f 7d c9 0a 40
       0.6711251 0.89215654 1.0479395 2.1685479
000320 94 e9 67 40 ac af a9 3f a7 23 6d 3f 73 5e 94 3f
       3.6236315 1.3256736 0.92632526 1.1591324
000330 c0 e1 c5 3f 21 c4 9f 40 97 26 cf 3f a1 51 87 3f
       1.5459518 4.9926915 1.6183652 1.0571786
000340 b3 f5 47 3f 91 bc 4e 3f 2e af 89 3f 56 6b 8e 3f
       0.7810928 0.8075648 1.0756586 1.1126506
000350 e0 c4 15 40 17 8f 9b 3f bb bc 4b 40 06 0f 13 3f
       2.3401413 1.2153043 3.1833942 0.574448
000360 8e c3 22 3f da 48 b0 3f 51 40 4e 3f bd 44 b5 3f
       0.6357964 1.3772233 0.8056689 1.4161602
000370 2e c4 76 3e 8a 34 c5 3e 1e 88 d6 3f 57 25 9e 3f
       0.24098274 0.38516647 1.676029 1.2355145
000380 0d 82 c1 3e 4d 77 90 3f 91 bf 4e 3e 04 a1 55 3f
       0.37794533 1.1286408 0.20190264 0.83448815
000390 a7 f4 e5 3f 68 2e 1d 3f 5b 36 67 3f ea 14 8a 3f
       1.7965287 0.61398935 0.90317315 1.0787632
0003a0 0b 93 2b 3f 0b ca b8 3f ec 47 33 3f 30 fc db 3e
       0.67021245 1.4436659 0.7003162 0.4296584
0003b0 17 4d 40 3f 6f 14 40 40 00 f9 19 40 38 7c 79 3f
       0.7511763 3.0012472 2.4058228 0.9745517
0003c0 fa 6b 42 3f 10 10 8d 3f fc bc e1 3f 73 64 ae 3f
       0.7594601 1.1020527 1.7635798 1.3624405
0003d0 bd 60 48 3f 26 49 d3 3f bb 08 31 3f 4b 85 09 3f
       0.7827261 1.6506698 0.69153947 0.53719014
0003e0 de c0 15 3f 00 1b 3e 40 db ab ad 3f 86 85 f7 3e
       0.58497417 2.970398 1.3568071 0.48344058
0003f0 43 4b 87 3f d7 1e 81 3f ee 90 bc 3f c3 fb 2e 40
       1.0569843 1.0087537 1.4731729 2.7341163
